tests/ginn.pth (torch, 49658 bytes, 39 tensors)

masked_gcn.weight f4 [5, 128]
0	0x3d86ca56	0.06581561
1	0x3d927741	0.07151652
2	0xbc9d3994	-0.019192494
3	0x3daae868	0.08345109
4	0xbca6d704	-0.0203662
5	0x3c917fb3	0.017761087
6	0xbd31cd65	-0.04340877
7	0x3d5d3109	0.05400184
8	0x3da3ffb8	0.08007759
9	0xbd8443a6	-0.064582154
10	0x3d99208f	0.07476913
11	0x3c712def	0.014720424
12	0x3d8a18c0	0.06743002
13	0x3c1d50cb	0.009601782
14	0x3d37383f	0.044731375
15	0xbc6d40b6	-0.01448076
16	0x3d8fd644	0.0702329
17	0x3c52d6de	0.012868611
18	0xbd1f45ea	-0.038885035
19	0x3ca529e9	0.020161586
20	0xbd26cdf2	-0.04072375
21	0xbc46042e	-0.012085957
22	0xbd172410	-0.036899626
23	0x3d6fd4a4	0.0585524
24	0xbd8ee42a	-0.069771126
25	0xbd2afd05	-0.041745204
26	0xbcddf709	-0.027095335
27	0xbd559680	-0.05214548
28	0x3bc4319e	0.00598736
29	0xbdb2c9fd	-0.087299325
30	0x3d9ea30b	0.07745942
31	0xbd9e5514	-0.07731071
32	0x3d8ab0bb	0.0677199
33	0x3c8bb34b	0.017053267
34	0xbceb1c77	-0.028700097
35	0x3d6115b8	0.054952353
36	0x3c3c4a7b	0.011492367
37	0x3d970929	0.07374794
38	0x3c1e4fd3	0.009662586
39	0xbcedef86	-0.029044878
40	0x3cc46a2c	0.023976408
41	0xbcbdacd3	-0.023153698
42	0x3d1e033c	0.038577303
43	0x3da5b61b	0.080913745
44	0x3d54c380	0.051944256
45	0xbd26c123	-0.040711533
46	0x3d56be05	0.05242731
47	0x3c7e66d4	0.015527446
48	0x3d33c28e	0.043886714
49	0xbd5aa383	-0.053378593
50	0xbdb05ea6	-0.08611803
51	0xbd143ccb	-0.03619079
52	0xbd88cf77	-0.06680196
53	0x3d913726	0.07090597
54	0x3cbd317a	0.023094881
55	0x3d1c1828	0.038108975
56	0x3ce5f231	0.028069587
57	0xbb5f927c	-0.003411441
58	0x3d88d44d	0.06681118
59	0xbd792fbb	-0.060836535
60	0x3bfcb01f	0.007711425
61	0xbd7175c5	-0.058950204
62	0x3cd0fe85	0.02551199
63	0xbcf95c02	-0.03043938
64	0x3ccdb659	0.025111364
65	0xbc908683	-0.017642265
66	0x3d968202	0.07349016
67	0xbd53c554	-0.05170186
68	0xbd57eb4c	-0.05271463
69	0xbd5bfec4	-0.05370976
70	0x3da718cd	0.08159027
71	0x3cddf554	0.02709452
72	0x3dacc797	0.08436506
73	0xbd956416	-0.072944805
74	0xbdb452e4	-0.08804873
75	0xbd9241c2	-0.071414486
76	0xbd77a2a9	-0.06045786
77	0x3d16bc6a	0.03680078
78	0x3cf39613	0.029734647
79	0x3d9af23b	0.07565733
80	0xbd3af749	-0.045645986
81	0xbd75dced	-0.060025144
82	0x3d486842	0.048927553
83	0xbd1a71a3	-0.03770603
84	0x3d5a023f	0.0532248
85	0xbcbf4938	-0.023350343
86	0x3d45ca26	0.048288487
87	0xbd8f77db	-0.070052825
88	0xbd36b3e6	-0.04460516
89	0x3cee8974	0.029118277
90	0x3ca16ab7	0.019704206
91	0xbcb89c1f	-0.022535382
92	0x3d5d7232	0.054063983
93	0x3d7fb27a	0.062426068
94	0xbd854fd9	-0.0650937
95	0xbd3ff1a7	-0.046861317
96	0x3da67b81	0.08129025
97	0xbcf27160	-0.029595077
98	0xbd051abf	-0.03249621
99	0xbdb13388	-0.08652407
100	0xbd54f980	-0.051995754
101	0x3cbfeb78	0.02342771
102	0xbc47edf1	-0.012202726
103	0xbd882720	-0.066480875
104	0x3a2a247f	0.00064904237
105	0xbd7d3455	-0.061817486
106	0xbd98f8e3	-0.074693464
107	0xbd50473d	-0.050849188
108	0xbd9e6e29	-0.07735855
109	0xbd671d95	-0.056424696
110	0x3db0af71	0.08627213
111	0x3c818b1d	0.015813405
112	0x3ccd8d6f	0.025091855
113	0xbdaae168	-0.08343774
114	0xbd67add5	-0.056562264
115	0xbcf1036b	-0.029420575
116	0x3c3cd37b	0.01152503
117	0xbda1549f	-0.07877468
118	0xbd1bfe22	-0.038084157
119	0xbd4f914a	-0.050675668
120	0x3b1c7d46	0.002387838
121	0xbd0e976a	-0.03481237
122	0xbb9b88d0	-0.004746534
123	0xbd755402	-0.05989457
124	0xbd788068	-0.060669333
125	0xbd574f58	-0.052565902
126	0xbce4616b	-0.027878484
127	0xbd8ee007	-0.069763236
128	0x3d940792	0.072280064
129	0xbc97e52a	-0.018541891
130	0x3d9e6f58	0.07736081
131	0x3cd66e76	0.026175719
132	0xbd9b5590	-0.07584679
133	0x3d82063a	0.06348844
134	0xbcd8b480	-0.026453257
135	0xbd05220d	-0.032503176
136	0xbd957b5a	-0.07298918
137	0xbdb6029d	-0.08887217
138	0x3cbfbf72	0.023406718
139	0xbcae0eef	-0.021247355
140	0x3d03b29b	0.032152753
141	0xbd948e53	-0.07253709
142	0x3d87c6dc	0.06629726
143	0xbd87b0dd	-0.06625531
144	0xbc7e76e6	-0.015531277
145	0x3c95162f	0.018199055
146	0x3d3c4ce4	0.045971766
147	0x3d8d4a9c	0.06898996
148	0x3da21409	0.07913978
149	0xbd93f626	-0.072246835
150	0x3cb8f616	0.02257828
151	0xbd1f511f	-0.038895722
152	0xbc18a99f	-0.009317785
153	0xbd898a00	-0.067157745
154	0x3da4245f	0.0801475
155	0xbd80cac6	-0.06288676
156	0x3d3b76f6	0.045767747
157	0x3d0354a9	0.03206316
158	0x3cd7deec	0.026351415
159	0xbd3e0f59	-0.046401355
160	0x3da4e3d5	0.08051268
161	0x3ca97972	0.020687792
162	0x3c23b4ff	0.009991883
163	0xbda314dd	-0.07962964
164	0x3d21513b	0.039384108
165	0xbc6fd5f8	-0.0146384165
166	0xbd25dbd4	-0.040492848
167	0x3d98e255	0.074650444
168	0x3c8eb303	0.017419344
169	0xbd47a6a4	-0.048742905
170	0xbd373deb	-0.044736784
171	0xbafc09d0	-0.0019228999
172	0x3d406db1	0.04697961
173	0xbca5f3c5	-0.02025784
174	0xbd4a7974	-0.049432233
175	0xbcf962b4	-0.030442573
176	0xbd873c28	-0.06603271
177	0x3d095f55	0.03353818
178	0x3d8b5e3e	0.06805085
179	0xbdac7c07	-0.08422094
180	0x3ca278fe	0.019833084
181	0x3d34909e	0.04408323
182	0x3c60d7a0	0.013723284
183	0xbcf32496	-0.029680531
184	0x3d381371	0.044940416
185	0x3d3d10cf	0.046158608
186	0x3cfcc0cd	0.030853653
187	0xbc6b7bff	-0.014372825
188	0xbcbd7cf2	-0.023130868
189	0x3c3a509e	0.01137176
190	0xbc88791d	-0.016659314
191	0xbccf9598	-0.025339887
192	0x3d5feb28	0.05466762
193	0x3d9f6e53	0.077847145
194	0xbbd4da52	-0.0064957524
195	0xbc90943e	-0.017648812
196	0x3aa90e1e	0.0012897884
197	0xbbcdb156	-0.0062772436
198	0x3cc0a656	0.023516815
199	0x3cd355ca	0.025797743
200	0xbda44237	-0.08020442
201	0xbd059b1e	-0.032618634
202	0x3d93db82	0.07219602
203	0x3d034b38	0.032054156
204	0xbbc8bb3d	-0.006125836
205	0xbd5a4673	-0.05328984
206	0xbd62fa58	-0.055414528
207	0xbd9f9921	-0.07792879
208	0xbcec05a2	-0.02881128
209	0x3d03a337	0.032138076
210	0x3d66712e	0.05626028
211	0x3d1d7d73	0.038449716
212	0xbda20ef8	-0.07913011
213	0xbd583790	-0.052787364
214	0xbc4f7ab9	-0.012663537
215	0x3daceb32	0.084432974
216	0x3c517c86	0.012786036
217	0xbcba0958	-0.022709534
218	0x3d139cc8	0.03603819
219	0xbd09e4d3	-0.03366549
220	0xbd6a54e2	-0.057209857
221	0x3d88f1af	0.066867225
222	0xbd24c326	-0.04022517
223	0xbc81cabf	-0.015843747
224	0xbdaf4208	-0.08557516
225	0x3d714813	0.058906626
226	0x3d8471cd	0.06467018
227	0x3d04f766	0.0324625
228	0xbd7d0ad4	-0.061777905
229	0xbdade736	-0.084913656
230	0xbd923f74	-0.07141009
231	0x3d826194	0.06366268
232	0x3d2ef002	0.042709358
233	0x3d9d0c93	0.07668414
234	0x3d3f23ea	0.04666511
235	0x3ca3fee7	0.020019008
236	0xba62e6b3	-0.00086555927
237	0xbd8e146e	-0.069374904
238	0xbd9fd820	-0.078048944
239	0xbda6a07f	-0.08136081
240	0x3d156722	0.03647531
241	0xbd35d75a	-0.04439483
242	0xbc9213f6	-0.017831784
243	0xbd505aeb	-0.050867956
244	0xbc8c22c5	-0.017106423
245	0xbd83d6a9	-0.064374276
246	0xbd6c8fce	-0.05775433
247	0x3ce61461	0.02808589
248	0xbccf005f	-0.025268732
249	0x3d581eba	0.052763678
250	0xbcd70612	-0.026248012
251	0xbd84ca34	-0.0648388
252	0xbc7f82c7	-0.015595145
253	0xbd367789	-0.04454759
254	0xbcede11d	-0.029038006
255	0xbdac5461	-0.084145315

masked_gcn.bias f4 [128]
0	0x3c87a50d	0.016558195
1	0xbdacc0a6	-0.08435182
2	0x3da0da43	0.0785413
3	0x3d5dac7a	0.054119565
4	0xbdb34191	-0.0875274
5	0xbd233423	-0.039844643
6	0x3cdb6bf2	0.02678487
7	0xbc8327d1	-0.016010197
8	0xbbeed8a5	-0.0072890096
9	0xbd2bc1ec	-0.041932985
10	0x3d8eba16	0.06969087
11	0xbd533820	-0.051567197
12	0x3d98bf9e	0.07458423
13	0x3b632b9e	0.003466345
14	0x3c9d805b	0.019226244
15	0x3d89b9e2	0.067249075
16	0xbc71f625	-0.014768158
17	0xbd484087	-0.048889663
18	0xbc6787b6	-0.014131477
19	0x3d96c742	0.07362224
20	0xbd892313	-0.06696143
21	0x3c953ead	0.018218363
22	0xbdaef85d	-0.08543465
23	0x3d398e2d	0.045301605
24	0x3d0513de	0.03248965
25	0x3b4bdd5c	0.0031107282
26	0x3d11b44c	0.035572335
27	0x3ad0da73	0.0015934244
28	0x3d3fe8d2	0.046852894
29	0xbd8d4029	-0.06897003
30	0xbc59d49c	-0.013295319
31	0x3d18b580	0.037282467
32	0x3db41c83	0.08794501
33	0x3d389fda	0.04507432
34	0xbd87ecd1	-0.06636966
35	0x3d8f26e2	0.06989838
36	0xbca3a0cf	-0.01997414
37	0xbc885050	-0.016639858
38	0xbda487bd	-0.080337025
39	0xbc842ec6	-0.016135585
40	0x3d7e9401	0.062152866
41	0x3c2b356a	0.010449747
42	0xbd4d3995	-0.050103743
43	0x3cef1ff1	0.029190036
44	0xbcea77ff	-0.028621672
45	0x3da0e2db	0.07855769
46	0xbd9aa9f0	-0.07551944
47	0xbce693f2	-0.028146718
48	0xbdb0d5e0	-0.086345434
49	0xbd07eb98	-0.033183664
50	0x3ce7444c	0.028230809
51	0x3daa6328	0.08319694
52	0x3c795769	0.015218594
53	0x3dadb6ef	0.084821574
54	0x3c7924aa	0.015206495
55	0x3d5ac755	0.053412754
56	0x3d95f1e6	0.07321529
57	0x3d92d1dd	0.071689345
58	0xbd4fef6b	-0.050765436
59	0x3daa65a9	0.083201714
60	0x3d572273	0.052523088
61	0xbd20ee8f	-0.039290007
62	0xbd3314cb	-0.043721
63	0xbd949223	-0.07254436
64	0x3ca90315	0.020631352
65	0xbd8eec18	-0.06978625
66	0x3d1150fe	0.03547763
67	0x3cf2655f	0.029589353
68	0xbd9f5167	-0.07779198
69	0x3cc4c75f	0.024020849
70	0xbba84235	-0.0051348456
71	0x3d1c39ef	0.038141187
72	0x3d4b311f	0.049607392
73	0xbdb1e95a	-0.086870864
74	0x3da63f3f	0.08117532
75	0x3d931f09	0.07183654
76	0x3d0b1026	0.033950947
77	0xbda36595	-0.079783596
78	0xbd09c721	-0.03363717
79	0xbcc16020	-0.023605406
80	0xbca7ce32	-0.020484064
81	0x3d498abd	0.049204577
82	0x3d0b8f30	0.0340721
83	0x3d8aac72	0.067711726
84	0xbd0c4d68	-0.034253508
85	0x3cf20246	0.0295421
86	0x3cf00379	0.02929853
87	0xbd98eab7	-0.07466643
88	0xbdb26a51	-0.087116845
89	0xbd33e081	-0.043915275
90	0x3d76edad	0.06028526
91	0xbdaa6c22	-0.08321406
92	0xbd9abe10	-0.07555783
93	0x3d505b4e	0.050868325
94	0x3d42ab4b	0.04752664
95	0x3d959e60	0.07305598
96	0xbd8815c9	-0.0664478
97	0xbd803dd6	-0.06261794
98	0x3d3376d1	0.043814484
99	0x3d9a8792	0.07545389
100	0x3d5bc2f8	0.053652734
101	0x3c8279a4	0.015927143
102	0x3ce158ef	0.027508227
103	0x3da73b0d	0.0816556
104	0xbd6b0323	-0.05737604
105	0xbd234052	-0.039856263
106	0x3d7892d6	0.06068691
107	0xbd80ba35	-0.06285516
108	0xbd438967	-0.04773846
109	0x3d7ffc75	0.06249662
110	0x3cd33b4e	0.025785115
111	0x3cf9b434	0.030481435
112	0xbd21c990	-0.039498866
113	0x3a767749	0.000940193
114	0x3da9c083	0.08288672
115	0xbd615035	-0.055008132
116	0xbad9062b	-0.0016557624
117	0x3d2acab0	0.041697204
118	0xbd79ef87	-0.061019447
119	0x3db38a9a	0.087666705
120	0xbd3e38fc	-0.046441063
121	0xbcbf5f48	-0.023360863
122	0xbcb0dde0	-0.021590173
123	0xbd6becfc	-0.057599053
124	0xbdb36c9b	-0.08760949
125	0x3d43910d	0.047745753
126	0x3cd32167	0.025772763
127	0xbda98af8	-0.08278459

output_gcn.wh f4 [128, 5]
0	0xbe924a43	-0.28572282
1	0x3ee22088	0.44165444
2	0x3e31738e	0.17329237
3	0x3e35a09f	0.17737053
4	0xbe87d4e1	-0.265296
5	0xbe46f3a5	-0.1942888
6	0xbd8c05bc	-0.06837031
7	0xbda656d7	-0.08122032
8	0xbe9d07b7	-0.30669948
9	0x3d0fa4ba	0.035069205
10	0x3d3e1859	0.04640994
11	0xbd603303	-0.05473615
12	0x3d83401f	0.064087145
13	0xbe374461	-0.17897178
14	0x3dedb30c	0.11606416
15	0x3e2f125b	0.17096846
16	0xbe72172d	-0.23641653
17	0xbee2b166	-0.4427597
18	0x3e6dc051	0.23217894
19	0x3dd59ec5	0.104306735
20	0xbe67e1da	-0.2264475
21	0x3edc266c	0.42998064
22	0xbe4e14dc	-0.20125145
23	0x3e9b3d70	0.3032031
24	0x3e695a79	0.22788419
25	0xbebf329b	-0.37343296
26	0x3e94dc60	0.29074383
27	0xbed3c030	-0.41357565
28	0xbe80043e	-0.25003237
29	0xbd97ec8d	-0.07418165
30	0xbe99a4c5	-0.30008522
31	0x3edeb40d	0.43496743
32	0xbdb310a4	-0.08743408
33	0x3e33814e	0.17529795
34	0xbecb3f9c	-0.39696968
35	0x3e84b584	0.25919735
36	0xbe0c3b5d	-0.1369452
37	0xbead8a15	-0.3389441
38	0x3d839716	0.06425302
39	0x3e5fb7ae	0.21847412
40	0x3ec7587e	0.38934702
41	0xbe8c2fa7	-0.27380106
42	0xbe5f0384	-0.21778685
43	0x3dab52bd	0.083653904
44	0x3df93862	0.12168957
45	0x3e3253d4	0.1741479
46	0x3e790605	0.24318703
47	0xbdcbc126	-0.099489495
48	0x3e7e1518	0.24812734
49	0x3ea9fe17	0.33201668
50	0xbdeba2b2	-0.11505641
51	0x3ea2d23e	0.31801027
52	0x3e620569	0.22072376
53	0x3ec8e90d	0.39240304
54	0xbe80e79a	-0.25176698
55	0xbe607da8	-0.21922934
56	0xbe049178	-0.12946117
57	0x3ccd37dc	0.02505105
58	0x3e893c1c	0.26803672
59	0xbe818ec0	-0.25304222
60	0x3e676831	0.2259834
61	0xbe26534d	-0.16242714
62	0x3e8b2846	0.27179164
63	0xbcbfb450	-0.02340141
64	0xbec77fe1	-0.3896475
65	0xbe7a0feb	-0.24420135
66	0xbea608c1	-0.32428554
67	0x3e636929	0.22208084
68	0xbe99574e	-0.2994942
69	0xbd18428b	-0.037172835
70	0x3dca1a97	0.09868353
71	0xbe7b3f42	-0.2453585
72	0x3e065e80	0.13121986
73	0xbee0b100	-0.4388504
74	0xbea2b412	-0.31778008
75	0xbecea543	-0.4036046
76	0xbe0bf1e8	-0.13666499
77	0xbe259e03	-0.16173558
78	0x3d8011ab	0.0625337
79	0xbda5ba8d	-0.08092222
80	0x3e5966e8	0.21230662
81	0x3ed1ba28	0.40962338
82	0x3e26938c	0.16267222
83	0xbe36aa62	-0.17838433
84	0xbed54921	-0.41657355
85	0x3e27d595	0.16390069
86	0xbe632051	-0.22180296
87	0x3e6a0224	0.22852379
88	0x3e9824ed	0.29715672
89	0x3e329688	0.17440236
90	0x3ed80fb5	0.42199484
91	0x3ed8556c	0.42252672
92	0x3dc6550c	0.0968419
93	0xbea6fc85	-0.32614532
94	0x3ecc6c6f	0.39926478
95	0xbe58e66e	-0.21181652
96	0xbe5a1ed1	-0.21300818
97	0x3ebfac92	0.37436348
98	0x3eb032af	0.3441367
99	0x3e0a0358	0.13477838
100	0x3ce5a595	0.028033057
101	0xbebfe61d	-0.3748025
102	0xbd3e25a2	-0.04642261
103	0x3edae89f	0.427556
104	0x3de93d87	0.113886885
105	0x3d23c594	0.039983347
106	0xbdc1a550	-0.09455359
107	0xbe1dae7f	-0.15398596
108	0x3e875de1	0.2643881
109	0x3cf37d4c	0.029722832
110	0x3e9473e1	0.2899466
111	0xbda17a7e	-0.07884692
112	0x3e4a8247	0.1977626
113	0x3e3c00c6	0.1835967
114	0x3d917201	0.07101823
115	0x3e911829	0.28338745
116	0x3e8e52ba	0.2779749
117	0x3ed31af7	0.4123151
118	0x3eafac2f	0.34311053
119	0xbdeadf09	-0.11468322
120	0xbec11115	-0.37708345
121	0x3da64dc4	0.08120301
122	0xbb8a7ab5	-0.0042260536
123	0xbdf0e78e	-0.117629156
124	0xbd9bf851	-0.07615722
125	0x3cbe7ac6	0.023251902
126	0x3ea7a395	0.3274199
127	0x3e0ece1f	0.13945816
128	0xbe23ba45	-0.15989025
129	0xbe3a6b67	-0.18205033
130	0xbddffc17	-0.10936754
131	0xbe2e9aa7	-0.17051183
132	0x3ecebcdb	0.4037846
133	0x3e7060a5	0.23474367
134	0x3ecf81bc	0.40528667
135	0x3b241bbc	0.0025040945
136	0x3db3e6c6	0.08784251
137	0x3e20f0a4	0.15716797
138	0xbed9e362	-0.42556292
139	0x3d2bbe1c	0.04192935
140	0xbce356bb	-0.027751317
141	0xbe80743d	-0.25088683
142	0xbeb275a1	-0.3485537
143	0x3ec9bff5	0.39404264
144	0x3eba3bc8	0.36373734
145	0x3e543e74	0.20726949
146	0x3edb0217	0.42775032
147	0xbe39d6a0	-0.18148279
148	0xbda03c80	-0.078240395
149	0x3e2d631c	0.16932338
150	0xbd927f63	-0.07153203
151	0xbdb307ad	-0.087416984
152	0xbebd718a	-0.37000686
153	0x3df16981	0.117877014
154	0xbe8ab4df	-0.2709112
155	0x3c8ff974	0.017575003
156	0x3ede2dfd	0.4339446
157	0xbe0ad738	-0.13558662
158	0xbe10b308	-0.14130795
159	0x3e8a0192	0.26954323
160	0xbe265b06	-0.1624566
161	0xbd1f6cd9	-0.038922165
162	0x3ed6f56b	0.41984114
163	0xbe3dc7da	-0.18533269
164	0xbea2e97c	-0.3181876
165	0xbe7ea2e7	-0.2486683
166	0xbdff212a	-0.124574974
167	0xbe56e078	-0.20984066
168	0xbe6fb915	-0.23410447
169	0x3e3b436f	0.18287443
170	0x3d9d11ca	0.076694086
171	0xbe13cee7	-0.14434396
172	0xbeb0b8ae	-0.345159
173	0xbe0f2a50	-0.13980985
174	0xbe3efe48	-0.18651688
175	0xbe132a3b	-0.14371578
176	0xbecfb2a1	-0.4056597
177	0x3dc967af	0.09834229
178	0xbea96116	-0.33081883
179	0xbeb16f40	-0.3465519
180	0xbeba9f79	-0.36449793
181	0x3e3f335a	0.18671933
182	0xbe89adca	-0.26890403
183	0xbe3ee9e2	-0.18643907
184	0x3eb48baf	0.3526282
185	0x3e757dda	0.2397379
186	0x3e848205	0.25880447
187	0xbed97117	-0.42469093
188	0xbea51365	-0.3224136
189	0xbe2c658b	-0.1683561
190	0x3ebd2783	0.36944208
191	0x3d3b647d	0.04575013
192	0xbeab3f9f	-0.33446977
193	0x3b378679	0.0028003736
194	0xbeb1d641	-0.34733775
195	0xbdc6dffa	-0.09710689
196	0xbdfd34a3	-0.12363555
197	0x3ec5833c	0.38576686
198	0x3e0bca76	0.13651451
199	0xbd9ae496	-0.075631306
200	0x3d9ebd5c	0.07750961
201	0xbe05010a	-0.12988678
202	0x3e338e79	0.17534818
203	0x3e330518	0.17482412
204	0x3df335fc	0.11875531
205	0xbe314159	-0.17310084
206	0x3ec28eb9	0.37999514
207	0xbd81a68a	-0.06330593
208	0xbe32a604	-0.17446142
209	0x3e8ffaa5	0.28120914
210	0x3ebb54fa	0.3658827
211	0x3ee32914	0.44367278
212	0x3e0642e8	0.1311146
213	0xbe1d8506	-0.15382776
214	0x3e672d1f	0.22575806
215	0x3ec59b0c	0.38594854
216	0xbee076b8	-0.43840575
217	0xbd595395	-0.053058226
218	0xbe9d4840	-0.30719185
219	0x3dab726e	0.08371435
220	0x3e3f7727	0.18697797
221	0xbdbd3395	-0.09238354
222	0xbd116e3f	-0.03550553
223	0x3e4be39f	0.1991105
224	0xbd968f09	-0.073515005
225	0xbec04b2e	-0.37557358
226	0x3eb62002	0.35571295
227	0xbe66b0a0	-0.22528315
228	0xbd51ef8e	-0.051253848
229	0x3d349eb1	0.044096652
230	0xbccfbbf7	-0.025358183
231	0xbed794eb	-0.42105803
232	0x3e531781	0.20614435
233	0xbe519e5a	-0.20470563
234	0xbe6db63a	-0.23214045
235	0x3dde31cd	0.108493425
236	0xbe706b13	-0.23478346
237	0xbe51d5c8	-0.20491707
238	0xbe1c4222	-0.15259603
239	0xbe2a43b3	-0.16627388
240	0xbe3e3bad	-0.18577452
241	0xbdf90cf1	-0.121606715
242	0x3df010ce	0.11721955
243	0xbeb8c716	-0.3608939
244	0xbe8a14d7	-0.26969025
245	0x3bf75da0	0.0075490028
246	0x3d79515d	0.06086861
247	0x3e7f3533	0.24922638
248	0xbea126cd	-0.31474915
249	0x3e13d2d6	0.14435896
250	0x3e82b44f	0.2552819
251	0x3e805401	0.2506409
252	0xbed41b80	-0.4142723
253	0xbe30d5f7	-0.17269121
254	0xbec39f0d	-0.38207284
255	0xbe91d7b9	-0.28484896

output_gcn.ws f4 [5, 5]
0	0xbe64af4b	-0.22332494
1	0xbe1da9e8	-0.15396845
2	0xbba8e6d9	-0.0051544723
3	0xbe8ee042	-0.2790547
4	0x3d0f66c2	0.035010107
5	0xbd0155af	-0.031575855
6	0x3e31ac6b	0.17350928
7	0x3dd8c2b6	0.10584013
8	0x3eab5c22	0.3346873
9	0xbc718ae2	-0.014742585
10	0xbea9308a	-0.33044845
11	0x3e4cb4cf	0.19990848
12	0xbe9abfb6	-0.3022439
13	0xbd7bc88f	-0.061470564
14	0xbe1448ce	-0.14480898
15	0xbe2dc3ee	-0.16969272
16	0xbe296ed4	-0.16546184
17	0x3ed26887	0.41095373
18	0x3e8313ce	0.25601047
19	0x3dfdd40d	0.12393961
20	0x3ed6fefd	0.41991416
21	0xbecf802d	-0.40527478
22	0x3d93cba4	0.07216576
23	0x3e929556	0.2862956
24	0x3e981ace	0.2970795

output_gcn.wm f4 [5, 5]
0	0xbebe2821	-0.3713999
1	0xbedb4d49	-0.428324
2	0xbe959a9c	-0.2921952
3	0x3e4dcdb4	0.20098001
4	0x3e53a237	0.20667349
5	0xbec61ff6	-0.3869626
6	0xbe2dbd7c	-0.16966814
7	0x3c18dfa3	0.009330663
8	0xbec6f749	-0.3886054
9	0x3e8217a4	0.2540866
10	0x3ed06a9d	0.4070634
11	0x3d9e7680	0.07737446
12	0xbea917ec	-0.33026063
13	0x3dd19352	0.10233177
14	0x3e2864ba	0.16444674
15	0x3eb656be	0.35613054
16	0xbe756be7	-0.23966943
17	0xbecc1a31	-0.39863732
18	0x3e473332	0.19453123
19	0x3cf54d1e	0.029943999
20	0xbe1327c6	-0.14370641
21	0xbe41a6d7	-0.189113
22	0xbe6a0cde	-0.22856471
23	0x3eb85a89	0.36006573
24	0xbd99b8e8	-0.07505971

output_gcn.bh f4 [5]
0	0xbe7abccd	-0.24486084
1	0x3ca1f19b	0.019768527
2	0xbd78d030	-0.060745418
3	0x3e00f8b8	0.12594879
4	0x3cb6b1e3	0.02230162

output_gcn.bs f4 [5]
0	0xbeb53391	-0.35390905
1	0x3e213775	0.15743811
2	0xbe8167df	-0.2527456
3	0xbc9f24b5	-0.019426683
4	0xbdbad087	-0.09121805

output_gcn.bm f4 [5]
0	0x3ea62a42	0.32454115
1	0x3ecb8318	0.39748454
2	0x3d705740	0.058676958
3	0x3dbf1a60	0.093312025
4	0xbce84941	-0.028355243

exp_avg f4 [5, 128]
0	0x3c183583	0.009290102
1	0x3b36888d	0.0027852387
2	0xba46e72c	-0.0007587548
3	0xbae31933	-0.0017326236
4	0x00000000	0.0
5	0xbaac1d0a	-0.0013131213
6	0x3c010fe4	0.007877324
7	0xbb9f8f47	-0.004869375
8	0xbbb9b847	-0.0056677195
9	0x391d60a0	0.00015008682
10	0x3c0fc92d	0.008775991
11	0x3b725575	0.0036977206
12	0xbbe4549a	-0.006968093
13	0x3b541ef6	0.0032367087
14	0xbb481598	-0.003053045
15	0x3be04ed8	0.0068453364
16	0xbbad3758	-0.0052861385
17	0x3b24857e	0.0025103982
18	0xbc38d171	-0.0112804035
19	0x3b8c2c49	0.00427774
20	0x00000000	0.0
21	0x3b0b91ec	0.0021296693
22	0x00000000	0.0
23	0xbb565649	-0.0032705239
24	0x00000000	0.0
25	0x00000000	0.0
26	0x3b3ac6ca	0.0028499835
27	0x00000000	0.0
28	0x3c15c5ce	0.009141399
29	0x00000000	0.0
30	0x3bf8acbf	0.0075889523
31	0x39488017	0.00019121204
32	0xbaad2870	-0.0013210904
33	0xba886b7c	-0.0010408009
34	0x00000000	0.0
35	0xbae787d6	-0.0017664384
36	0x3bdcc4db	0.006737334
37	0xbbffc993	-0.007806012
38	0x00000000	0.0
39	0x39b755b2	0.00034968328
40	0x3a72819a	0.00092508795
41	0x38ae6ddb	8.317429e-05
42	0xbbd2a29a	-0.006428075
43	0xbc74f22a	-0.014950315
44	0x38c1aea0	9.2354836e-05
45	0x3b89716c	0.004194429
46	0xba6dace0	-0.0009066593
47	0x3aca91a3	0.001545478
48	0x00000000	0.0
49	0x3a79518f	0.00095107494
50	0xb999aa38	-0.00029309257
51	0x3b91b688	0.0044468082
52	0x00000000	0.0
53	0x3be79a43	0.00706795
54	0x3c08b55b	0.00834402
55	0xba51c283	-0.0008001702
56	0xbaf9212b	-0.0019007077
57	0x3ae9f98a	0.0017850858
58	0x3b633ce6	0.003467375
59	0xba00cc06	-0.00049132144
60	0xbbd2ed8c	-0.006437009
61	0xbae9be79	-0.0017833255
62	0x3b97f800	0.004637718
63	0x00000000	0.0
64	0x3bebdac6	0.0071977107
65	0x39f96270	0.00047566323
66	0xbb64566b	-0.0034841548
67	0x3947de0d	0.00019060839
68	0x00000000	0.0
69	0x00000000	0.0
70	0xbc0a8a9e	-0.0084559005
71	0x3c741bf8	0.014899246
72	0xbacc3ac6	-0.0015581481
73	0x00000000	0.0
74	0x3b763132	0.0037565944
75	0x3b801745	0.003909024
76	0x00000000	0.0
77	0x00000000	0.0
78	0x3c42be34	0.011886168
79	0xbc886176	-0.016648035
80	0x00000000	0.0
81	0xbb284211	-0.0025674144
82	0xbb095db1	-0.0020960385
83	0x3b84a89a	0.004048419
84	0xbadcba63	-0.0016840216
85	0x3a7a9162	0.0009558407
86	0x3b1fa25a	0.0024358244
87	0x38218205	3.850648e-05
88	0x00000000	0.0
89	0xbbd51263	-0.006502436
90	0xb7800a80	-1.5263679e-05
91	0x00000000	0.0
92	0xbaa880d4	-0.0012855777
93	0xbbb3b617	-0.0054843533
94	0x00000000	0.0
95	0xbbc3e006	-0.0059776334
96	0xbbb0fe11	-0.005401381
97	0x3a8a15c2	0.0010535049
98	0x3a564328	0.0008173459
99	0x00000000	0.0
100	0x3a5399be	0.00080719206
101	0xba4a6088	-0.0007720073
102	0xb9e5c95e	-0.00043828314
103	0x3c6d6a14	0.014490623
104	0x3a446860	0.000749236
105	0x39da7c35	0.00041672742
106	0xba54a534	-0.00081117754
107	0x3b176da3	0.002310612
108	0x00000000	0.0
109	0xba4e5f56	-0.00078724825
110	0x3c492148	0.012276001
111	0xb85766e0	-5.1355804e-05
112	0x3bcc2bf7	0.006230827
113	0x00000000	0.0
114	0xba5975a6	-0.0008295424
115	0x00000000	0.0
116	0x3c16d689	0.009206423
117	0x00000000	0.0
118	0x00000000	0.0
119	0xbbb05ddc	-0.0053822827
120	0xbb2f968a	-0.002679261
121	0x3b88c0ac	0.004173359
122	0xbcba4f3f	-0.022742866
123	0x00000000	0.0
124	0x00000000	0.0
125	0x00000000	0.0
126	0xbaed106b	-0.0018086558
127	0x00000000	0.0
128	0x3b26e5dc	0.0025466597
129	0x00000000	0.0
130	0xba0fe78e	-0.00054895214
131	0x3a9e94db	0.0012098806
132	0x00000000	0.0
133	0xbbb7c924	-0.0056086946
134	0x3b9cca0c	0.004784828
135	0xba3cd8ce	-0.0007203937
136	0xbac7bf42	-0.0015239494
137	0x00000000	0.0
138	0x3af9ee1b	0.0019068153
139	0x3af20a60	0.0018466227
140	0x3a35185e	0.0006908233
141	0x00000000	0.0
142	0x3a0887a0	0.0005208198
143	0x3913878f	0.00014069512
144	0x3b35459e	0.0027659903
145	0x3b0883a2	0.0020830412
146	0xbb2cb854	-0.0026354985
147	0x3b26a8af	0.0025430133
148	0x3b8ef7cf	0.004363037
149	0x3a08c790	0.00052177254
150	0xba2f6a48	-0.00066915574
151	0xb91cc112	-0.00014949244
152	0xba8bf0e7	-0.0010676653
153	0x00000000	0.0
154	0x3b53ed3c	0.0032337448
155	0xba0cddae	-0.0005373609
156	0x3af2f72c	0.0018536798
157	0x00000000	0.0
158	0x3bed32ba	0.007238713
159	0xba35c48d	-0.00069338904
160	0xba87cde9	-0.0010361049
161	0xb9007680	-0.00012251176
162	0x3b3bba6a	0.0028645047
163	0x3a494596	0.00076779106
164	0xbb8826ba	-0.004155007
165	0x39a21a17	0.00030918486
166	0x00000000	0.0
167	0x3a2b3d6a	0.0006532284
168	0x3b365f0b	0.0027827646
169	0xba833627	-0.0010010645
170	0x00000000	0.0
171	0xbb8637a9	-0.0040959907
172	0x3b3121d4	0.002702822
173	0xbb8bbde2	-0.004264579
174	0x00000000	0.0
175	0x3b12d36e	0.0022403854
176	0x00000000	0.0
177	0xbb91eed7	-0.0044535208
178	0x3afeb340	0.0019432083
179	0x3795de8a	1.7865812e-05
180	0xb8d7f3a6	-0.00010297382
181	0x3b1b09e6	0.0023657023
182	0x3c0e3781	0.008680225
183	0xba5c8b66	-0.0008413106
184	0x392cc7c0	0.00016477611
185	0x3aa3638c	0.001246558
186	0x3b83416c	0.0040056016
187	0xb9e6d081	-0.00044024366
188	0xbaf18d7f	-0.001842901
189	0xbacfcf44	-0.0015854617
190	0x384f5b5b	4.9437727e-05
191	0x00000000	0.0
192	0x3bf27021	0.0073986207
193	0xbadee14c	-0.00170044
194	0xbabac4e4	-0.0014249352
195	0xb9a653b8	-0.00031724363
196	0x00000000	0.0
197	0x00000000	0.0
198	0xbbf941c7	-0.007606718
199	0xb7a23724	-1.9337582e-05
200	0xbaa734d7	-0.0012756836
201	0x00000000	0.0
202	0x3b99404a	0.0046768533
203	0x3b88d358	0.0041755848
204	0x3a8207be	0.000992052
205	0x00000000	0.0
206	0x3a067621	0.0005129297
207	0xba059a0b	-0.00050965016
208	0x00000000	0.0
209	0xbba3c684	-0.00499803
210	0x393d00f0	0.00018024794
211	0x3b3eab12	0.0029093665
212	0x00000000	0.0
213	0xb9ee71e0	-0.0004547974
214	0xb8b797f4	-8.7544235e-05
215	0x38a41814	7.824614e-05
216	0x00000000	0.0
217	0xba898426	-0.0010491654
218	0xb9f429dd	-0.00046570497
219	0x00000000	0.0
220	0x00000000	0.0
221	0xbbc00ece	-0.00586114
222	0x39e60fa8	0.00043880683
223	0xbafcc6bf	-0.0019285305
224	0xba2ab3d3	-0.0006511781
225	0xb931e2e0	-0.00016964553
226	0x3bb001ca	0.005371307
227	0xb9fc9424	-0.0004817556
228	0x3a8349b7	0.0010016476
229	0xba3d45c3	-0.0007220173
230	0xb8aaa3c2	-8.136734e-05
231	0x3c60d624	0.01372293
232	0xba929ac1	-0.0011185036
233	0xbb4bc31f	-0.0031091643
234	0xbb17d165	-0.002316558
235	0x3b127bf6	0.0022351719
236	0x00000000	0.0
237	0x3984b79e	0.00025313807
238	0x3b8b6ff2	0.0042552883
239	0xb805a466	-3.186278e-05
240	0xbb4a7a74	-0.0030895742
241	0x00000000	0.0
242	0x3a33a504	0.00068528973
243	0x00000000	0.0
244	0x00000000	0.0
245	0x3945702d	0.00018829173
246	0x00000000	0.0
247	0x3947a1a0	0.00019038329
248	0x00000000	0.0
249	0x3b603bc5	0.0034215313
250	0xbc1f3afa	-0.009718651
251	0x00000000	0.0
252	0x00000000	0.0
253	0x3901dd81	0.00012384915
254	0x3ac76676	0.0015213031
255	0x00000000	0.0

exp_avg_sq f4 [5, 128]
0	0x37edb986	2.8338993e-05
1	0x360a08e1	2.056877e-06
2	0x34dddf56	4.1326956e-07
3	0x34c1eee5	3.612287e-07
4	0x35675bea	8.618796e-07
5	0x34cd8097	3.8277787e-07
6	0x36d0cf06	6.2229838e-06
7	0x367d1d76	3.7717086e-06
8	0x36985539	4.539874e-06
9	0x320703e9	7.858923e-09
10	0x375b7672	1.3080995e-05
11	0x3680ec64	3.8422168e-06
12	0x36f3504b	7.2513117e-06
13	0x358e9abe	1.062486e-06
14	0x35c0607c	1.4333195e-06
15	0x371508df	8.8831575e-06
16	0x36946b86	4.423261e-06
17	0x3560b79c	8.371369e-07
18	0x37557d2c	1.2724933e-05
19	0x35f92ebe	1.856555e-06
20	0x00000000	0.0
21	0x35dedbc4	1.6604249e-06
22	0x31e2f933	6.6057964e-09
23	0x3621ca43	2.4108601e-06
24	0x00000000	0.0
25	0x2ba83f9d	1.1954774e-12
26	0x35a04e70	1.1943757e-06
27	0x363a0601	2.7719655e-06
28	0x371114bf	8.647504e-06
29	0x00000000	0.0
30	0x36c51616	5.8736287e-06
31	0x319e563b	4.6082085e-09
32	0x35bfd44e	1.4292398e-06
33	0x33f4c2c3	1.13975624e-07
34	0x00000000	0.0
35	0x34b33090	3.3376682e-07
36	0x36afcb6a	5.239087e-06
37	0x36da7e9c	6.5116456e-06
38	0x00000000	0.0
39	0x3558e5d8	8.0800737e-07
40	0x34926f71	2.7275703e-07
41	0x3325b0ee	3.8577973e-08
42	0x368aa5bd	4.132015e-06
43	0x38329862	4.2580425e-05
44	0x339bcae8	7.2546584e-08
45	0x3643b8d7	2.9164855e-06
46	0x358088b2	9.576527e-07
47	0x3492f81a	2.7375137e-07
48	0x3318e109	3.5594926e-08
49	0x353494d2	6.727179e-07
50	0x321394a7	8.590326e-09
51	0x3668a770	3.4668155e-06
52	0x2a876f0e	2.4057877e-13
53	0x37cf0fb5	2.4683637e-05
54	0x36eeaa60	7.112787e-06
55	0x350406cd	4.918373e-07
56	0x35140015	5.5134416e-07
57	0x3554d54e	7.9286554e-07
58	0x35a53468	1.230871e-06
59	0x3353b3f6	4.929094e-08
60	0x36c91515	5.992721e-06
61	0x34aabd05	3.1802497e-07
62	0x36f890e3	7.407843e-06
63	0x00000000	0.0
64	0x372eb31d	1.0412911e-05
65	0x355f58d9	8.3203264e-07
66	0x35ddbb79	1.6520345e-06
67	0x3396707d	7.005381e-08
68	0x00000000	0.0
69	0x2a19b4b6	1.3651827e-13
70	0x373fd61a	1.1434337e-05
71	0x37bf0290	2.2770168e-05
72	0x369dabbb	4.6989567e-06
73	0x00000000	0.0
74	0x35bd7202	1.4114778e-06
75	0x35f46b0b	1.821057e-06
76	0x3320d752	3.7448736e-08
77	0x318183e6	3.7693892e-09
78	0x38067459	3.2056447e-05
79	0x381609e1	3.5771987e-05
80	0x00000000	0.0
81	0x355e21bf	8.275055e-07
82	0x3552f2ec	7.8584594e-07
83	0x365a02b3	3.2486103e-06
84	0x35d71ff7	1.6028051e-06
85	0x33c4e926	9.169371e-08
86	0x353a8647	6.94858e-07
87	0x2f2307ae	1.4827492e-10
88	0x00000000	0.0
89	0x36c4a9bb	5.8610144e-06
90	0x340eb4e6	1.3290591e-07
91	0x00000000	0.0
92	0x34317558	1.6527099e-07
93	0x3655f2e1	3.1880847e-06
94	0x2b79f907	8.8808165e-13
95	0x36817b57	3.8588582e-06
96	0x364a31ae	3.0129263e-06
97	0x34bef593	3.5568937e-07
98	0x36a41bfc	4.8908387e-06
99	0x32ba0257	2.1654314e-08
100	0x338bebd7	6.515591e-08
101	0x357b06b3	9.3514535e-07
102	0x34361431	1.6957416e-07
103	0x37bfc740	2.2861757e-05
104	0x351f0f72	5.925459e-07
105	0x34361fa2	1.6961579e-07
106	0x33a01e5c	7.456103e-08
107	0x35448bbb	7.3219024e-07
108	0x00000000	0.0
109	0x342cbf04	1.608824e-07
110	0x37cd4c46	2.4473422e-05
111	0x3317ddcc	3.535915e-08
112	0x36bc80ee	5.617846e-06
113	0x2da783c6	1.9044221e-11
114	0x3512d69c	5.4701536e-07
115	0x00000000	0.0
116	0x3720c52a	9.582649e-06
117	0x304a6a24	7.3638007e-10
118	0x00000000	0.0
119	0x36705b92	3.5816088e-06
120	0x358c2500	1.0441581e-06
121	0x36826607	3.8861795e-06
122	0x3858f200	5.1723793e-05
123	0x00000000	0.0
124	0x00000000	0.0
125	0x3315b936	3.4860214e-08
126	0x34af9fea	3.2712643e-07
127	0x00000000	0.0
128	0x35ef8e0a	1.7848226e-06
129	0x33114843	3.3826165e-08
130	0x351e1ee2	5.8904527e-07
131	0x360c7998	2.0932403e-06
132	0x2f8be800	2.54488e-10
133	0x3665fe7b	3.4271786e-06
134	0x366323f4	3.3846563e-06
135	0x335ee50a	5.1896713e-08
136	0x347960a5	2.3225091e-07
137	0x3191a614	4.2389363e-09
138	0x356e4ee0	8.877669e-07
139	0x35450d79	7.3407824e-07
140	0x3375b8df	5.7211647e-08
141	0x00000000	0.0
142	0x3503205c	4.884839e-07
143	0x32e787c7	2.6953684e-08
144	0x357252f9	9.0272766e-07
145	0x350ad312	5.1716154e-07
146	0x3544f6e8	7.3374986e-07
147	0x353087bd	6.5762634e-07
148	0x35ff7f85	1.9036094e-06
149	0x3324975a	3.832188e-08
150	0x334d64c2	4.782192e-08
151	0x34982b56	2.8343737e-07
152	0x33f87751	1.15701035e-07
153	0x314fd0ad	3.0241083e-09
154	0x358fcd1e	1.0714027e-06
155	0x3372676d	5.643908e-08
156	0x36451004	2.936461e-06
157	0x3510c72e	5.3934025e-07
158	0x36b1bf4e	5.297282e-06
159	0x3525062b	6.1476266e-07
160	0x341f7408	1.4850241e-07
161	0x332f27a7	4.0781426e-08
162	0x355c42ff	8.205388e-07
163	0x345d6a09	2.0620804e-07
164	0x36066ae2	2.002977e-06
165	0x32243b40	9.559528e-09
166	0x00000000	0.0
167	0x3594cbc0	1.1086158e-06
168	0x356e8a4a	8.8863146e-07
169	0x3417dce2	1.4143328e-07
170	0x00000000	0.0
171	0x35fde0c9	1.891539e-06
172	0x3545a05a	7.362156e-07
173	0x360369c1	1.9582078e-06
174	0x31257f80	2.4083135e-09
175	0x35398b80	6.912087e-07
176	0x00000000	0.0
177	0x3674fa65	3.6504582e-06
178	0x34cea59d	3.849099e-07
179	0x355cc516	8.2243184e-07
180	0x32ba423c	2.168337e-08
181	0x3655fe5a	3.1887525e-06
182	0x370d3869	8.417389e-06
183	0x346377cc	2.1184604e-07
184	0x3414663d	1.3820768e-07
185	0x343e5155	1.7724717e-07
186	0x360ebeb8	2.1270662e-06
187	0x35c3be84	1.458408e-06
188	0x34d549aa	3.972794e-07
189	0x3518d41c	5.693307e-07
190	0x34748703	2.2773388e-07
191	0x310c0dcd	2.0380526e-09
192	0x377ccacf	1.50675905e-05
193	0x353bc2dc	6.9946486e-07
194	0x34839ba7	2.4513903e-07
195	0x327c46c0	1.4684417e-08
196	0x00000000	0.0
197	0x2f089f43	1.2425709e-10
198	0x36e5b374	6.845623e-06
199	0x33bd95c6	8.828242e-08
200	0x348facdb	2.6761595e-07
201	0x00000000	0.0
202	0x3635d92d	2.7097515e-06
203	0x35ea210f	1.744398e-06
204	0x34bc941a	3.5125487e-07
205	0x00000000	0.0
206	0x34eac884	4.373179e-07
207	0x3559e482	8.117132e-07
208	0x00000000	0.0
209	0x363fb5ee	2.8567115e-06
210	0x31afeab8	5.1198548e-09
211	0x3569c271	8.7082213e-07
212	0x2f2e0272	1.5826077e-10
213	0x32b4ed7a	2.106275e-08
214	0x32994bf5	1.7846085e-08
215	0x348176aa	2.4114462e-07
216	0x00000000	0.0
217	0x34212734	1.5008555e-07
218	0x3447cec4	1.860854e-07
219	0x00000000	0.0
220	0x00000000	0.0
221	0x366f06fd	3.5617843e-06
222	0x3312bb29	3.4163495e-08
223	0x3577a7a8	9.225864e-07
224	0x333cbacd	4.3942055e-08
225	0x32269b90	9.6978425e-09
226	0x365b0df0	3.2641656e-06
227	0x32f29ca1	2.8243734e-08
228	0x341b959d	1.4489929e-07
229	0x337401ea	5.6812418e-08
230	0x3036c176	6.648614e-10
231	0x37c08bfe	2.2953373e-05
232	0x341d5948	1.4654245e-07
233	0x3590c2fe	1.0785586e-06
234	0x3513bd86	5.503756e-07
235	0x350b8514	5.197519e-07
236	0x00000000	0.0
237	0x321cc09f	9.124192e-09
238	0x36047416	1.9737104e-06
239	0x31071d7f	1.9661852e-09
240	0x3591b7f5	1.085688e-06
241	0x2d17afe3	8.622411e-12
242	0x33b001cb	8.195965e-08
243	0x00000000	0.0
244	0x330e6fd5	3.3163662e-08
245	0x31aaf09b	4.975005e-09
246	0x00000000	0.0
247	0x3407a1fc	1.2631784e-07
248	0x31ecde4f	6.8937775e-09
249	0x3667eb41	3.4558618e-06
250	0x37755c21	1.4624588e-05
251	0x00000000	0.0
252	0x00000000	0.0
253	0x31cb651f	5.9195737e-09
254	0x34edcf85	4.429568e-07
255	0x00000000	0.0

exp_avg f4 [128]
0	0x3ba84aa8	0.005135853
1	0x3a713d33	0.000920254
2	0xba99f1b3	-0.0011745006
3	0x3a97db8e	0.0011585818
4	0x00000000	0.0
5	0xbb59a6d0	-0.0033211
6	0x3c4c129f	0.0124556115
7	0xbb5cef0e	-0.0033711824
8	0xbba367ce	-0.0049867397
9	0x3b5f3f49	0.003406482
10	0x3b6843b8	0.0035440754
11	0x3bd80a24	0.0065930057
12	0xbb18efdb	-0.0023336324
13	0x3addff00	0.0016936958
14	0xbb512054	-0.0031910138
15	0x3b6725e0	0.0035270378
16	0x3b0a10d3	0.0021067157
17	0xba004d56	-0.00048943365
18	0xbb754a49	-0.003742831
19	0xbb83427a	-0.0040057274
20	0x3b22f8e5	0.002486759
21	0x3b6ffb69	0.0036618358
22	0xb9cc83a9	-0.00039008007
23	0x39540238	0.00020218722
24	0xba427ca2	-0.00074190844
25	0xb9d4e38b	-0.00040605324
26	0x3b0f40f5	0.0021858786
27	0xbb4e271e	-0.003145642
28	0x3be3e0be	0.0069542816
29	0x00000000	0.0
30	0x3b9af430	0.0047288164
31	0x3bc2dda4	0.005946832
32	0xbb819f76	-0.003955777
33	0xba7a1947	-0.000954051
34	0x3b178927	0.002312252
35	0xbb93438c	-0.004494136
36	0xb9e738c8	-0.0004410206
37	0xbb8d5ada	-0.004313809
38	0x00000000	0.0
39	0x3a62fb83	0.0008658694
40	0x3b21721d	0.0024634667
41	0x3b2e1164	0.0026560659
42	0xbb6a0fc4	-0.0035714963
43	0xbc2d249c	-0.01056781
44	0x3b0e00d7	0.002166798
45	0x3c08ebee	0.008357031
46	0xb9970dcc	-0.00028811244
47	0x3b0d6653	0.0021575883
48	0x00000000	0.0
49	0xbb3e6ec1	-0.0029057714
50	0x3ab70168	0.0013962211
51	0x3b7b62d4	0.0038358467
52	0xbb1a7e41	-0.0023573788
53	0x3ba2e960	0.004971668
54	0x3c193f5a	0.009353483
55	0xbb261e95	-0.0025347818
56	0xbb1172bc	-0.002219363
57	0x3bf332d8	0.0074218325
58	0x3a824d2e	0.0009941214
59	0xbb9dfaf7	-0.004821177
60	0x38d653e0	0.00010219938
61	0xbb911275	-0.004427249
62	0x3b57f9f7	0.0032955387
63	0xba80c4e5	-0.0009824304
64	0x3ba318c7	0.004977319
65	0xbaa8ffdb	-0.0012893634
66	0x3b85006c	0.004058888
67	0xbb0e2cdc	-0.0021694219
68	0x00000000	0.0
69	0x39da24d0	0.00041607628
70	0xbc153c65	-0.009108637
71	0x3c2bcf2d	0.010486406
72	0x3a72c1d3	0.00092604494
73	0x00000000	0.0
74	0x3b1a614b	0.0023556526
75	0x3ab4c06a	0.0013790254
76	0x3a8aeaf6	0.0010598588
77	0x00000000	0.0
78	0x3c5e1ab8	0.013556175
79	0xbc3e5fb2	-0.011619495
80	0xbad0f2fc	-0.0015941556
81	0xba125fe0	-0.00055837445
82	0xba46462e	-0.0007563558
83	0x3b8e29c8	0.004338477
84	0x3a2789d4	0.00063910824
85	0x3b507dcc	0.0031813262
86	0x3aaef626	0.0013348504
87	0x384a59c3	4.824415e-05
88	0x3aba25dc	0.0014201957
89	0xbb814fd0	-0.003946282
90	0x3a352f30	0.00069116335
91	0x00000000	0.0
92	0xba2e6695	-0.0006652859
93	0xba3a0d40	-0.00070973113
94	0x3b126e7c	0.0022343686
95	0xbb9cd194	-0.004785726
96	0xbb9a1bd0	-0.0047030225
97	0xbb073991	-0.0020633677
98	0x3aee2dd5	0.0018171618
99	0x3a9342cd	0.0011235118
100	0x39e5bf08	0.00043820613
101	0xbc13469e	-0.008989004
102	0x3aca0f29	0.0015415895
103	0x3bff1198	0.0077840798
104	0xbb1ae492	-0.0023634774
105	0xbb6b2954	-0.0035882788
106	0x39a9c1e8	0.00032378663
107	0x3b9a21ae	0.004703722
108	0x00000000	0.0
109	0x3b8a5ff0	0.0042228624
110	0x3c3141dd	0.010818926
111	0xbb0b6fd6	-0.0021276376
112	0x3b4c129e	0.0031139026
113	0xbb4a18da	-0.0030837567
114	0xbb1b932b	-0.0023738842
115	0x3b0b3c02	0.0021245484
116	0x3ba34108	0.0049821176
117	0x3b1ad94d	0.0023628057
118	0x00000000	0.0
119	0xba237c02	-0.0006236435
120	0x3addbe9a	0.0016917766
121	0x3be6ba9f	0.00704129
122	0xbc8d79fc	-0.01727008
123	0x00000000	0.0
124	0xb94d725f	-0.0001959293
125	0x3b0e939c	0.0021755463
126	0xbbc27fea	-0.0059356587
127	0x00000000	0.0

exp_avg_sq f4 [128]
0	0x37b80de7	2.1940983e-05
1	0x3512867e	5.458495e-07
2	0x3601b500	1.9327854e-06
3	0x3618fc5a	2.2796653e-06
4	0x3649c99b	3.0068684e-06
5	0x35954bdd	1.1123444e-06
6	0x37e31b6f	2.7073283e-05
7	0x35db20fc	1.6326371e-06
8	0x362fbb6a	2.6186121e-06
9	0x360d0831	2.1015405e-06
10	0x37d814e0	2.5758927e-05
11	0x36ce8fbf	6.1560127e-06
12	0x37547d5a	1.266537e-05
13	0x34bf5327	3.5637024e-07
14	0x371a8fdc	9.21261e-06
15	0x369f5858	4.748854e-06
16	0x351bf265	5.809473e-07
17	0x3481ee53	2.4201526e-07
18	0x3603d8d3	1.964673e-06
19	0x366a3d87	3.490453e-06
20	0x3525ffed	6.183971e-07
21	0x366ffb23	3.5759956e-06
22	0x3425d3ff	1.5443946e-07
23	0x369e2557	4.713114e-06
24	0x3421d47c	1.5071595e-07
25	0x347e3b1c	2.3677097e-07
26	0x35031aa8	4.8840093e-07
27	0x37013eec	7.703649e-06
28	0x3709f868	8.223673e-06
29	0x343c20a6	1.7520742e-07
30	0x3624d1ed	2.4560097e-06
31	0x3702ee79	7.804128e-06
32	0x36687d51	3.4643638e-06
33	0x34286984	1.5684606e-07
34	0x35630a4e	8.4579085e-07
35	0x369866af	4.541907e-06
36	0x33926173	6.816381e-08
37	0x361c3de1	2.328183e-06
38	0x00000000	0.0
39	0x33ccd828	9.538809e-08
40	0x3525bd9b	6.17432e-07
41	0x35eaad95	1.7484878e-06
42	0x35ab33dc	1.2755586e-06
43	0x37b8319a	2.1957607e-05
44	0x35120d9b	5.4409037e-07
45	0x372b3366	1.0204361e-05
46	0x34d8c7f3	4.0378617e-07
47	0x351db414	5.8749106e-07
48	0x33cbda6a	9.4926534e-08
49	0x368937d1	4.089416e-06
50	0x3577d13e	9.231916e-07
51	0x366e7676	3.5533717e-06
52	0x35161f56	5.5924954e-07
53	0x36e45dae	6.8058353e-06
54	0x376c14b2	1.4071515e-05
55	0x352fca3e	6.548688e-07
56	0x35084711	5.0767363e-07
57	0x36f548cd	7.310044e-06
58	0x3613676f	2.1964913e-06
59	0x36a84b39	5.0155472e-06
60	0x36aebf7b	5.2078954e-06
61	0x3667b821	3.452886e-06
62	0x36ebe206	7.0298584e-06
63	0x350ceb02	5.2496046e-07
64	0x37764926	1.4679774e-05
65	0x34e6f735	4.3020705e-07
66	0x368e143b	4.234285e-06
67	0x36031de5	1.9537922e-06
68	0x350eab5c	5.3148483e-07
69	0x32f915bd	2.89973e-08
70	0x376e24f6	1.4194511e-05
71	0x37656257	1.367236e-05
72	0x3766663c	1.3732872e-05
73	0x324dc42a	1.1977173e-08
74	0x35b474e8	1.3445069e-06
75	0x3469428f	2.172403e-07
76	0x36979e22	4.5185598e-06
77	0x30994c70	1.115394e-09
78	0x380199b8	3.089916e-05
79	0x37d2d01f	2.5130865e-05
80	0x34aae829	3.1833886e-07
81	0x34f4ee22	4.5621806e-07
82	0x3405024d	1.2387427e-07
83	0x360c58bc	2.0913276e-06
84	0x366765b9	3.4480893e-06
85	0x35b2045d	1.3263303e-06
86	0x34898570	2.5615327e-07
87	0x33a84cdd	7.837091e-08
88	0x345891a8	2.0169557e-07
89	0x365cba6c	3.2891066e-06
90	0x3382ca7c	6.0904284e-08
91	0x00000000	0.0
92	0x333e18f9	4.4260535e-08
93	0x354e06dd	7.675097e-07
94	0x353cc2d4	7.031897e-07
95	0x361c7eaa	2.331954e-06
96	0x362c2360	2.5650588e-06
97	0x353c6ef6	7.0196927e-07
98	0x361746ec	2.2542035e-06
99	0x35be4bc8	1.4178158e-06
100	0x3533b80f	6.6950537e-07
101	0x375c7271	1.3139667e-05
102	0x359c7952	1.1658215e-06
103	0x36fcccb9	7.534018e-06
104	0x36274a30	2.4928122e-06
105	0x35ca9739	1.5094184e-06
106	0x358cc0d7	1.0486937e-06
107	0x3614e9b0	2.2189743e-06
108	0x338a5785	6.4420455e-08
109	0x3657f5b3	3.2180512e-06
110	0x37993dac	1.826774e-05
111	0x3586aea6	1.0034607e-06
112	0x35e63e13	1.7154401e-06
113	0x35b4385d	1.3427449e-06
114	0x3592628f	1.0906532e-06
115	0x357c0ee3	9.389898e-07
116	0x362d7a15	2.585007e-06
117	0x351e84cf	5.905285e-07
118	0x00000000	0.0
119	0x33e8964b	1.083068e-07
120	0x34b1d271	3.3121935e-07
121	0x36f5172c	7.3042665e-06
122	0x38075de8	3.2273965e-05
123	0x00000000	0.0
124	0x3501b5f9	4.832105e-07
125	0x354a5f4f	7.5389556e-07
126	0x3686eb98	4.020938e-06
127	0x00000000	0.0

exp_avg f4 [128, 5]
0	0xbb569220	-0.0032740906
1	0xba490dd4	-0.0007669602
2	0xbb85cae8	-0.004083026
3	0x3b3acb52	0.0028502536
4	0xbb2f25c0	-0.0026725382
5	0xba2e318b	-0.0006644956
6	0xb8472e4c	-4.7488415e-05
7	0x364c7a78	3.0469655e-06
8	0x395e7ade	0.00021217341
9	0x39e81d73	0.0004427243
10	0xba247695	-0.00062737736
11	0xb9816bcb	-0.0002468511
12	0xbaebad2a	-0.0017980684
13	0x3a7a4905	0.0009547624
14	0x3aa1d661	0.0012347215
15	0xbb29e948	-0.00259264
16	0xb9058554	-0.00012733537
17	0x3993ae34	0.00028167816
18	0x3a9b8674	0.0011865632
19	0x3a5752e0	0.00082139485
20	0x00000000	0.0
21	0x00000000	0.0
22	0x00000000	0.0
23	0x00000000	0.0
24	0x00000000	0.0
25	0xb7abb89a	-2.047075e-05
26	0xb9c27a1f	-0.0003709355
27	0x38fab2e6	0.000119542514
28	0x39a0fb0e	0.00030704628
29	0xb95efb25	-0.00021265128
30	0xb98e8fdb	-0.0002719153
31	0x3a392a08	0.0007063453
32	0xbb1c862b	-0.0023883681
33	0x3a0ae95a	0.00052990543
34	0xbab37562	-0.0013691599
35	0xba0b0825	-0.0005303643
36	0xb92b1162	-0.00016314306
37	0xb8705ba6	-5.7305813e-05
38	0x380bbcb1	3.3315915e-05
39	0xb98faded	-0.0002740467
40	0xbb02c51c	-0.0019953912
41	0xb8ada4f9	-8.2800114e-05
42	0xbaa64928	-0.0012686597
43	0x3ac5da0c	0.001509489
44	0xba3604b8	-0.0006943452
45	0xba36e901	-0.00069774693
46	0x3a9352ce	0.0011239888
47	0xbac46794	-0.0014984482
48	0x3a737e90	0.00092885736
49	0xba4ee891	-0.00078929315
50	0xbb10fb1c	-0.002212233
51	0xbad24fd7	-0.0016045523
52	0xbb0a95e7	-0.0021146478
53	0x3b3cee02	0.0028828387
54	0xbb14ed0c	-0.0022724299
55	0xb938816f	-0.00017595825
56	0x3913875d	0.00014069439
57	0xb9f086a8	-0.00045876694
58	0x3a0f46b2	0.00054655515
59	0xba454068	-0.0007524551
60	0xbb7d4d04	-0.0038650641
61	0x3a2aa980	0.0006510243
62	0xba34728a	-0.0006883523
63	0x3b33d376	0.0027439273
64	0xbb1d86b2	-0.0024036583
65	0xb908184e	-0.00012979025
66	0xb7b54fed	-2.16141e-05
67	0xb837bbce	-4.3805507e-05
68	0xb7fac1ca	-2.9892562e-05
69	0xb90a3242	-0.00013179428
70	0xbb02ac69	-0.001993919
71	0xba806eec	-0.0009798682
72	0xbb5eedfa	-0.0034016357
73	0x3b277904	0.0025554309
74	0xbb64d324	-0.0034915889
75	0xb9986d42	-0.00029073103
76	0x3907f38a	0.00012965329
77	0xb8a8d1f0	-8.049968e-05
78	0x398b0428	0.00026515243
79	0xb98e9dfb	-0.00027202055
80	0xbae43dfc	-0.0017413492
81	0x395efdf1	0.0002126617
82	0xbaa6c916	-0.0012724723
83	0x3aa5154a	0.0012594846
84	0xba9c135e	-0.0011907627
85	0xb9de4d9e	-0.0004240097
86	0x389245d8	6.974832e-05
87	0x37ba3634	2.2198168e-05
88	0x39b86073	0.00035167075
89	0xb9bd1e68	-0.00036071544
90	0xb9bc2cf8	-0.0003589166
91	0x3a7ad646	0.00095686724
92	0xbad3054e	-0.0016099603
93	0x3a2e953c	0.0006659811
94	0xba0e2429	-0.00054222584
95	0xba260e63	-0.0006334541
96	0x3a234cb4	0.0006229386
97	0xb8f601ae	-0.00011730507
98	0x3a9832b0	0.0011611786
99	0xb8cf41e0	-9.882799e-05
100	0x00000000	0.0
101	0xb9822445	-0.00024822555
102	0x00000000	0.0
103	0x3967d6c3	0.00022109882
104	0x00000000	0.0
105	0xba1a42c6	-0.0005884584
106	0x3a443ecf	0.0007486166
107	0xbad5b646	-0.0016304932
108	0x3afc6714	0.0019256794
109	0xbb2ff8e8	-0.002685124
110	0x00000000	0.0
111	0xb8d1f06d	-0.000100106794
112	0xb9280f2e	-0.00016027383
113	0x00000000	0.0
114	0x38dfed68	0.00010677689
115	0xbacd12be	-0.0015645844
116	0x39c3e578	0.00037364266
117	0x39faf803	0.000478685
118	0xb97a877f	-0.00023892334
119	0x39b8ee93	0.00035272966
120	0xb84ae274	-4.8371454e-05
121	0xb86d87ba	-5.663161e-05
122	0x3850f477	4.981874e-05
123	0xb60dd210	-2.113291e-06
124	0x37091e7c	8.172934e-06
125	0xb90a64d8	-0.00013198273
126	0xb5c42f40	-1.461689e-06
127	0xb828f160	-4.027912e-05
128	0x3686cac8	4.017118e-06
129	0xb7ded954	-2.6565664e-05
130	0xb928d91e	-0.00016102611
131	0xba7250b6	-0.0009243594
132	0xb9828aad	-0.00024898854
133	0x3a850ceb	0.0010150945
134	0xb923024c	-0.00015545747
135	0xb7abbc0c	-2.0472355e-05
136	0x3a13171c	0.00056110485
137	0xb9357a84	-0.00017307146
138	0x3a378fa9	0.0007002303
139	0xba2e3839	-0.0006645951
140	0xbac27788	-0.0014836648
141	0xb9e3ce4e	-0.00043450523
142	0x381d6a90	3.753096e-05
143	0x3a973f59	0.0011539265
144	0xba7d493e	-0.0009662098
145	0x00000000	0.0
146	0x00000000	0.0
147	0x00000000	0.0
148	0x00000000	0.0
149	0x00000000	0.0
150	0xbb199103	-0.002343238
151	0xba3c0212	-0.00071719394
152	0x39cc0484	0.00038913277
153	0x3a8dd334	0.001082039
154	0xb8861258	-6.393035e-05
155	0xb8ebfc5e	-0.0001125268
156	0x3aa40871	0.0012514723
157	0xbb0bcf42	-0.0021333252
158	0x38214614	3.8450657e-05
159	0xb9c7db96	-0.00038119842
160	0xbb813dac	-0.0039441194
161	0xba232b4a	-0.0006224407
162	0xbbcab438	-0.0061860345
163	0x3ba01a44	0.0048859436
164	0xbba90e87	-0.0051592025
165	0xba02c6a4	-0.0004988706
166	0xb8af928c	-8.371947e-05
167	0xba1b5dfc	-0.00059267855
168	0x3a2d7172	0.0006616331
169	0xbac35bff	-0.0014904736
170	0x3720339a	9.548758e-06
171	0x36cb707f	6.0629677e-06
172	0xb8ef5d5f	-0.000114138
173	0x00000000	0.0
174	0xb90cfa96	-0.00013444791
175	0xbaf0299b	-0.0018322946
176	0x3a97cde7	0.001158175
177	0xba195d3d	-0.00058503804
178	0x3addc30c	0.001691909
179	0xba2ec2d5	-0.00066666055
180	0x388640fd	6.401723e-05
181	0x38bbd9f6	8.957453e-05
182	0x39040dab	0.00012593593
183	0x3a2e21e8	0.00066426257
184	0xba49e9e6	-0.0007702395
185	0xba4503d1	-0.00075155223
186	0xb9be16ec	-0.00036256702
187	0x394377c2	0.00018641262
188	0x3964e422	0.0002182876
189	0x38c66d1a	9.4616975e-05
190	0x00000000	0.0
191	0x00000000	0.0
192	0x00000000	0.0
193	0x00000000	0.0
194	0x00000000	0.0
195	0x3824d067	3.9294737e-05
196	0xb7bb4227	-2.2322942e-05
197	0x3818f6f8	3.646963e-05
198	0x39c45a98	0.0003745153
199	0xb980b606	-0.0002454968
200	0xbac66fcb	-0.0015139518
201	0xb990c5a6	-0.0002761308
202	0x3a560f36	0.0008165719
203	0x3af8e3b2	0.0018988757
204	0x39653e70	0.00021862402
205	0xb862242c	-5.3916287e-05
206	0x392ff5f2	0.00016780922
207	0xb89e0e2b	-7.536666e-05
208	0x38e52337	0.0001092613
209	0xb8679c68	-5.5220356e-05
210	0xb9172c5b	-0.00014417006
211	0x370f9ba6	8.559704e-06
212	0x370db7a1	8.447009e-06
213	0x36d2e4d4	6.285127e-06
214	0x389fab14	7.6135766e-05
215	0xbb3c0640	-0.0028690249
216	0xba6bbb03	-0.00089924055
217	0xba125e37	-0.0005583497
218	0x3ab6a63e	0.0013935042
219	0xba7fd574	-0.0009759285
220	0xba7cb792	-0.0009640391
221	0xb9e42492	-0.00043514796
222	0xb9c4b2f8	-0.00037517375
223	0x3a7d4d3b	0.00096626923
224	0xba1fe765	-0.0006099849
225	0xb90c46bc	-0.00013377791
226	0x3ab9d6a6	0.001417835
227	0xb7fa9380	-2.9871007e-05
228	0x3acca733	0.0015613794
229	0xba062dff	-0.0005118548
230	0xb9bb041b	-0.00035670478
231	0xb88568c8	-6.361451e-05
232	0x3701eced	7.744163e-06
233	0x38eefaf2	0.000113954666
234	0x394c3c89	0.00019477507
235	0xb98a5c14	-0.00026390015
236	0x3930f4e4	0.00016875897
237	0xba1b142d	-0.0005915787
238	0x3a38620d	0.00070336537
239	0xba5a3876	-0.00083244534
240	0x00000000	0.0
241	0x00000000	0.0
242	0x00000000	0.0
243	0x00000000	0.0
244	0x00000000	0.0
245	0xb7b4b94a	-2.1543954e-05
246	0x39305b78	0.00016818743
247	0xbb246712	-0.0025085849
248	0xb98bf0ac	-0.0002669146
249	0xba649e9b	-0.0008721144
250	0xb7a45c42	-1.9593284e-05
251	0xba11d60f	-0.0005563208
252	0xb9b3f9e4	-0.00034327724
253	0x3a2eb2d1	0.0006664219
254	0xb9bf7919	-0.00036520584
255	0x397b49e2	0.00023964749
