src/smoothimpute/imputer_methods/GINN_code/ginn.pth (torch, 56186 bytes, 39 tensors)

masked_gcn.weight f4 [6, 128]
0.011613207 0.2282502 0.009165159 0.28475085 -0.015462642 -0.014727951 0.0059195226 0.076122195
0.019940168 -0.013064823 -0.033515632 0.023236303 0.39856452 0.081216395 0.0832024 0.022080777
0.120860286 0.12966092 0.00025810153 0.011728654 0.006716625 -0.007055438 -0.013416922 0.02169033
0.013714622 -0.04074794 0.0015944677 0.009190868 -0.021843387 -0.76508635 0.118348986 0.03259694
-0.023308283 0.0021602346 -0.028700097 -0.036141146 0.010679015 0.2162919 0.19776376 0.0073287897
0.00031809753 -0.09506532 0.11583591 0.2165491 0.11212596 0.0052063144 0.22001953 0.039602913
-0.0054644747 0.0004552146 -0.0043421965 -0.0047476483 -0.8180425 -0.0010838434 0.0068704556 0.31764957
-0.032968156 0.08467195 0.06055652 -0.0117189605 0.003706188 -0.0026313039 -0.015874172 -0.043958344
-4.423281e-05 -0.030140173 0.2086281 0.02357872 -0.054358296 -0.4006135 0.03144002 0.00507035
0.035187595 -0.072944805 -0.09573654 0.006847794 -0.94366723 -0.06917195 0.027271146 0.0016669567
0.046700384 -0.026295474 0.022516618 0.069031 0.06863556 -0.028729215 -0.035595596 -0.06061388
-0.051881205 0.27175575 -0.00023131722 0.0048103835 0.0072229137 0.28209794 0.0014643593 -0.062482864
0.07345992 -0.09265889 0.021730538 0.008491779 -0.077332035 -0.027544519 0.08858359 -0.013791808
0.08716036 -0.020881018 0.00339657 -0.054729655 -0.010256115 0.009654269 -0.016774783 0.2932505
-0.03660784 -0.1342579 0.0030818908 -0.13367212 -0.026107928 0.029918203 0.041692726 -0.006104695
-0.012392337 -0.005407224 0.017535353 -0.05989457 0.005047298 -0.09014379 -0.013174032 -0.18263473
-0.009730764 0.0076011503 -0.0009140135 -0.0048890254 -0.017626356 0.3307996 0.013033947 -0.014456862
-0.10093787 0.004190698 0.00993307 -0.015593864 -0.012245934 0.08976131 -0.0027945237 -0.010084026
-0.001842314 0.002057153 0.008658358 -0.0039287815 0.2876839 -0.018614782 0.0040472005 -0.103539236
-0.0065897186 -0.0661578 -0.001252549 -0.012105986 0.060956556 -0.001077849 -0.017725866 0.05052014
-0.003915663 0.0102911545 0.0032861815 0.0037800937 0.36989832 -0.00031316807 -0.038744573 0.041375037
-0.00067293027 -0.0015672186 0.013573985 -0.018686993 0.12761843 -0.09569031 -0.014519727 0.026237765
-0.018415254 -0.08823081 0.03192047 -0.019478032 0.0068863775 0.15930049 0.01208967 -0.0059539243
0.36450332 0.12933005 0.023640553 -0.007824213 -0.0038654774 0.014780907 0.01909159 -0.00998338
0.026786055 0.030513704 -0.046649367 0.04241986 -0.006801309 -0.14032677 0.02033643 -0.0153001975
0.0006515342 -0.041944176 0.0012612152 0.05118411 -0.0020645428 0.013962037 0.01914189 -0.0175615
-0.022531698 -0.024262885 0.003458817 0.04877267 0.017595572 -0.041423835 -0.0050750594 0.11501719
0.012277611 0.0071047065 0.016036296 -0.008668891 -0.075042546 -0.04367199 -0.007955344 -0.010794194
-0.52825236 -0.016109213 0.006443689 0.01289484 0.015390892 -0.019179162 0.0066132452 0.21164326
0.019465126 0.36151436 0.030227954 0.017316718 -0.1356938 -0.01581967 -0.0034979256 -0.0003081376
-0.013237091 0.0016141552 -0.015846075 -0.016077293 -0.014177593 -0.48716182 -0.1656645 0.07288153
-0.028145239 0.047203362 -0.059981298 -0.0648388 0.021869477 0.003745762 -0.0074266903 -0.03580924
00000000: 5245 3e3c 6cba 693e 7729 163c ddca 913e
00000010: 0557 7dbc 814d 71bc 8ef8 c13b f4e5 9b3d
00000020: 9059 a33c d70d 56bc b047 09bd 0f5a be3c
00000030: a610 cc3e c854 a63d 0566 aa3d bfe2 b43c
00000040: 9985 f73d d5c5 043e cd51 8739 8a29 403c
00000050: 2217 dc3b 4e31 e7bb a6d2 5bbc ebaf b13c
00000060: 4bb3 603c 50e7 26bd 75fd d03a 4b95 163c
00000070: e7f0 b2bc b3dc 43bf f460 f23d 5e84 053d
00000080: 03f1 bebc b992 0d3b 771c ebbc bd08 14bd
00000090: 09f7 2e3c a07b 5d3e 9582 4a3e 5826 f03b
000000a0: 54c6 a639 9bb1 c2bd 613b ed3d 0cbf 5d3e
000000b0: 4ca2 e53d bb99 aa3b cd4c 613e aa36 223d
000000c0: 560f b3bb dfa9 ee39 fc48 8ebb 2992 9bbb
000000d0: 3c6b 51bf c00f 8eba 8f21 e13b f7a2 a23e
000000e0: 9e09 07bd 7d68 ad3d 1d0a 783d e200 40bc
000000f0: 84e3 723b f471 2cbb 8d0a 82bc aa0d 34bd
00000100: 9e86 39b8 86e8 f6bc 9ba2 553e 2928 c13c
00000110: cea6 5ebd 361d cdbe 40c7 003d 2e25 a63b
00000120: de20 103d 1664 95bd 8511 c4bd 7663 e03b
00000130: 2d94 71bf 06aa 8dbd bd67 df3c c97d da3a
00000140: e748 3f3d 9b69 d7bc c574 b83c 2060 8d3d
00000150: cd90 8c3d 8859 ebbc b0cc 11bd 4346 78bd
00000160: 6381 54bd 9223 8b3e be8d 72b9 6ca0 9d3b
00000170: 31ae ec3b 246f 903e bfef bf3a 08ee 7fbd
00000180: 2872 963d f2c3 bdbd 3e04 b23c 1a21 0b3c
00000190: 4260 9ebd 0ba5 e1bc 506b b53d 09f7 61bc
000001a0: 2181 b23d ab0e abbc fd98 5e3b 342c 60bd
000001b0: 4409 28bc f02c 1e3c 456b 89bc ee24 963e
000001c0: 1af2 15bd e77a 09be 8cf9 493b 58e1 08be
000001d0: 4be0 d5bc 0517 f53c fec5 2a3d e509 c8bb
000001e0: 3b09 4bbc 152f b1bb 4da6 8f3c 0254 75bd
000001f0: ce63 a53b 4f9d b8bd e5d7 57bc 9904 3bbe
00000200: c86d 1fbc 1213 f93b 689a 6fba 1e34 a0bb
00000210: 2665 90bc 915e a93e 568c 553c 79dc 6cbc
00000220: 84b8 cebd 1f52 893b 51be 223c 687d 7fbc
00000230: 2ca3 48bc c7d4 b73d 5424 37bb 7837 25bc
00000240: cd79 f1ba 4dd1 063b c9db 0d3c 02bd 80bb
00000250: 4e4b 933e 077e 98bc 619e 843b 610c d4bd
00000260: 91ee d7bb be7d 87bd 922c a4ba 2f58 46bc
00000270: 95ad 793d 9c46 8dba d635 91bc 35ee 4e3d
00000280: f64e 80bb 3b9c 283c fa5c 573b 73bb 773b
00000290: 5063 bd3e b530 a4b9 a1b2 1ebd df78 293d
000002a0: 9667 30ba 216b cdba 6b65 5e3c 7715 99bc
000002b0: 68ae 023e 48f9 c3bd 26e4 6dbc 95f0 d63c
000002c0: 96db 96bc 5bb2 b4bd 0abf 023d 6590 9fbc
000002d0: 1fa7 e13b ab1f 233e c013 463c 2319 c3bb
000002e0: 2ea0 ba3e 196f 043e d5a9 c13c 2131 00bc
000002f0: f353 7dbb 9e2b 723c f765 9c3c 5591 23bc
00000300: 6e6e db3c e0f7 f93c 6813 3fbd 72c0 2d3d
00000310: 84dd debb d2b1 0fbe 9698 a63c aead 7abc
00000320: b8cb 2a3a a8cd 2bbd 5c4f a53a 6ea6 513d
00000330: 484d 07bb 07c1 643c 74cf 9c3c 23dd 8fbc
00000340: 6594 b8bc f5c2 c6bc 52ad 623b dac5 473d
00000350: 9724 903c 0aac 29bd af4c a6bb 228e eb3d
00000360: 0828 493c 99ce e83b 8d5e 833c f707 0ebc
00000370: e8af 99bd 67e1 32bd 2257 02bc 22da 30bc
00000380: 8c3b 07bf 78f7 83bc 9525 d33b e144 533c
00000390: 142a 7c3c 9e1d 9dbc ecb3 d83b 03b9 583e
000003a0: 5475 9f3c 6918 b93e 9da0 f73c cadb 8d3c
000003b0: 51f3 0abe 4198 81bc 743d 65bb 878d a1b9
000003c0: 62e0 58bc 1092 d33a a1cf 81bc 87b4 83bc
000003d0: 2349 68bc 466d f9be f4a3 29be e942 953d
000003e0: d890 e6bc 5058 413d f3ae 75bd 34ca 84bd
000003f0: 9e27 b33c 757b 753b 985b f3bb b6ac 12bd

masked_gcn.bias f4 [128]
-0.04594207 -0.1750226 -0.051088292 -0.14468382 -0.15186799 -0.25206596 0.033646137 0.016136812
-0.090090126 -0.0507101 -0.10056483 -0.0670282 -0.20606229 -0.110025585 -0.07932622 -0.07777619
-0.21119983 -0.21636821 0.07042945 -0.058808777 -0.21793911 0.09278591 0.012009745 0.03075122
0.07083675 -0.07410551 0.04739148 -0.048954267 -0.12225361 0.1287364 -0.048464153 0.083754845
-0.20335674 -0.103507325 -0.0916953 0.052856974 -0.32106176 -0.102910414 -0.16651577 -0.03473626
0.031231131 0.07797057 -0.10841615 -0.16620855 -0.10526537 0.023012614 -0.08369397 -0.034266822
-0.113547035 0.042194188 0.063605234 0.06624145 0.17198047 -0.07268894 0.04203009 -0.15463656
-0.30542353 -0.019743972 -0.014855558 -0.17551492 -0.07572751 -0.072500646 0.08975515 -0.03502826
-0.112547204 -0.09197585 -0.19411154 0.058279164 -0.07766939 -0.0760394 -0.023214022 -0.05342277
-0.046906326 -0.115067735 0.08351135 -0.05571565 0.18122017 -0.05942156 -0.07693235 -0.058538143
-0.04361152 0.02981918 -0.04097575 -0.05025909 -0.092616156 -0.05435235 -0.08848182 -0.14626776
0.056094028 -0.14314127 0.034261152 -0.043627623 -0.0191666 -0.23412466 0.07758846 -0.12699965
-0.063100435 0.09490586 -0.09174647 0.038434826 -0.082887985 -0.18234274 -0.1287241 -0.12572692
-0.10413116 -0.27653894 0.029548623 -0.14847821 0.06991569 -0.039441515 -0.00037043975 -0.14423193
0.06626329 0.04984867 -0.074177444 0.13138616 0.038916424 0.14797844 0.09717283 -0.025062919
0.021600708 -0.024880465 0.018889755 -0.023053925 0.067182034 0.014197378 0.03358839 -0.17586398
00000000: c12d 3cbd 2039 33be f541 51bd ff27 14be
00000010: 4883 1bbe ca0e 81be 88d0 093d 5931 843c
00000020: 2c81 b8bd 65b5 4fbd eff4 cdbd 1546 89bd
00000030: fe01 53be 1855 e1bd c975 a2bd 2049 9fbd
00000040: c544 58be a18f 5dbe 513d 903d 79e1 70bd
00000050: 6e2b 5fbe 8a06 be3d 86c4 443c fce9 fb3c
00000060: dc12 913d a1c4 97bd 921d 423d 4584 48bd
00000070: 1a60 fabd 7ad3 033e 5982 46bd a987 ab3d
00000080: c03c 50be a6fb d3bd bfca bbbd 8e80 583d
00000090: 3562 a4be b2c2 d2bd 1c83 2abe 9c47 0ebd
000000a0: 6ed8 ff3c 09af 9f3d 4909 debd 9332 2abe
000000b0: 5f95 d7bd f384 bc3c bf67 abbd 5e5b 0cbd
000000c0: 598b e8bd d0d3 2c3d 7643 823d 99a9 873d
000000d0: a61b 303e f0dd 94bd be27 2c3d 0c59 1ebe
000000e0: 7960 9cbe 1cbe a1bc ba64 73bc 2fba 33be
000000f0: 0617 9bbd 387b 94bd 8cd1 b73d cb79 0fbd
00000100: 267f e6bd d65d bcbd 2dc5 46be 22b6 6e3d
00000110: 2111 9fbd 8cba 9bbd 552b bebc d6d1 5abd
00000120: d920 40bd a2a8 ebbd 0008 ab3d 1836 64bd
00000130: c891 393e 0664 73bd b58e 9dbd b1c5 6fbd
00000140: fea1 32bd 5a47 f43c 30d6 27bd 7adc 4dbd
00000150: 8aad bdbd 92a0 5ebd f535 b5bd 37c7 15be
00000160: dac2 653d a093 12be 6c55 0c3d e1b2 32bd
00000170: 4603 9dbc 60be 6fbe b3e6 9e3d 320c 02be
00000180: cd3a 81bd 015e c23d 93e5 bbbd d66d 1d3d
00000190: 2dc1 a9bd 0eb8 3abe 40d0 03be 8fbe 00be
000001a0: b842 d5bd 8396 8dbe f40f f23c ac0a 18be
000001b0: f52f 8f3d 6d8d 21bd 9537 c2b9 89b1 13be
000001c0: 0cb5 873d 1e2e 4c3d 58ea 97bd 188a 063e
000001d0: d466 1f3d a987 173e 8c02 c73d c050 cdbc
000001e0: f8f3 b03c 1ed2 cbbc b0be 9a3c 96db bcbc
000001f0: bc96 893d 1f9c 683c fb93 093d b015 34be

output_gcn.wh f4 [128, 6]
-0.10587074 -0.07250958 -1.127924 -0.31831 0.306754 0.25146618 0.78003854 -0.14676166
-0.027034855 0.22041705 -0.32955414 -0.04072674 -0.23975955 -0.19791432 -1.518811 0.04798538
0.29687467 0.43882215 0.89496803 -0.06821363 -0.24027015 0.070144325 0.00147692 -0.07424073
-0.22085446 0.029172514 -0.7524802 -0.53320456 0.79393846 0.177109 -0.11449801 0.8853122
-0.2567212 -0.17411983 0.053329818 -0.23796229 -0.31358805 -0.1862711 -0.04810983 -0.3262335
-0.09860386 0.08517813 0.06723341 -0.08356327 -0.57018113 -0.16909328 0.020929879 -0.010466737
-0.32393363 0.0573152 -0.3124723 -0.3112091 -0.3691948 0.12813993 -0.36977232 -0.22334574
0.3629291 0.24333157 -0.2747947 -0.58838975 -0.3747648 -0.23511022 0.5185138 0.11304609
-0.58175457 -0.4037222 -0.22488391 -0.17708488 -0.95288223 0.021193601 0.53067625 0.24608198
0.993334 -0.054716866 -0.110216804 0.11761509 0.041517135 -0.06473553 0.48743585 -0.0049544447
-0.5956663 0.5056451 0.35245788 0.39884263 0.1464834 -0.22259077 0.23715986 0.45257214
-0.42576003 -0.12911806 -0.45330748 -0.15309025 -1.104027 -0.26124147 0.12996556 0.6071751
-0.058065232 -0.59797204 0.8874122 -0.24266925 -0.5668297 -0.15802813 0.061992735 -0.72279114
0.766643 -0.1263342 -0.7695235 -0.17633979 -0.25614086 -0.11795559 -0.009939775 -0.1621977
-0.20561191 -0.17724018 0.054291483 -0.14563364 -1.1410983 -0.042316265 0.048731245 0.11122593
-0.30987534 0.97497386 -0.013012834 0.013836575 -0.30743462 -0.2737153 -0.30062988 -0.17809871
0.24430974 -0.14092527 -0.12017369 -0.31904286 -0.12001266 -0.13227884 0.2953624 -0.22320436
-0.21988617 -0.4311316 -0.009642684 0.27649835 0.14692447 -0.25586617 -0.04414306 -0.22106966
-0.3299715 0.10730087 0.05054791 -0.04017013 -0.32771575 -0.32037327 0.06731589 0.15093386
0.09156928 -0.19675325 0.39636737 -0.060095947 -0.2985227 -0.10021521 0.35770738 -0.0826407
-0.27034056 -0.23498718 -0.06971787 -0.26793355 -1.6761189 0.020451508 0.32828614 0.31212997
-0.12766637 0.2539696 -0.6152043 0.52654064 0.30674717 0.4524583 0.7310489 0.044462003
-0.21152006 0.2597806 -0.1857551 -0.012613709 0.006444146 -0.019206723 -0.70678943 0.032700054
-0.004903609 0.023919592 -0.31849745 -0.25723743 -0.26114014 0.5626482 0.33417562 0.103545785
-0.36665437 -0.52665097 0.76265144 0.03841388 -0.41020927 0.7317761 0.30768767 -0.09519282
-0.7913329 0.38947472 0.18931411 0.25825238 -0.2671277 0.23680852 -0.28495258 0.39876616
-0.16294275 0.25112087 0.11085208 -0.04311142 -0.18427628 0.1961933 -0.18898997 -0.27053088
-0.1414238 1.1047478 -0.25417805 -0.124216415 -0.11550483 -0.0430361 0.82469875 0.14632972
-0.46223515 -0.21046282 0.08916781 -0.15318358 1.0478724 -0.47238448 0.29635048 0.6963819
-0.010912597 -0.10802521 -0.30529833 0.29161546 -0.30972293 -0.58160514 0.41318247 -0.016853927
-0.03167807 0.14265683 -0.4609838 -0.22472581 0.14261463 0.025986973 0.12881714 -0.5120642
0.00028827027 -0.0887743 -0.2336736 -0.36174345 0.4880912 0.043992758 -0.49622628 0.47862452
00000000: c2d2 d8bd e77f 94bd d05f 90bf 87f9 a2be
00000010: dc0e 9d3e 2dc0 803e 9bb0 473f b048 16be
00000020: 3378 ddbc 02b5 613e 52bb a8be 15d1 26bd
00000030: 8783 75be 0daa 4abe 6668 c2bf 518c 443d
00000040: f5ff 973e 4cad e03e a01c 653f 96b3 8bbd
00000050: 6109 76be d4a7 8f3d 3695 c13a 860b 98bd
00000060: ac27 62be 32fb ee3c 8ba2 40bf 1880 08bf
00000070: 8d3f 4b3f 105c 353e ef7d eabd d2a3 623f
00000080: f670 83be 784c 32be 5e70 5a3d 63ac 73be
00000090: 9d8e a0be dabd 3ebe d00e 45bd 1408 a7be
000000a0: d2f0 c9bd df71 ae3d acb1 893d 3823 abbd
000000b0: 64f7 11bf ca26 2dbe 2375 ab3c ad7c 2bbc
000000c0: a1da a5be 58c3 6a3d 5ffc 9fbe cd56 9fbe
000000d0: 1a07 bdbe 1d37 033e cc52 bdbe bfb4 64be
000000e0: d8d1 b93e e92b 793e e4b1 8cbe b6a0 16bf
000000f0: 2ce1 bfbe bcc0 70be 52bd 043f b584 e73d
00000100: deed 14bf adb4 cebe f847 66be bd55 35be
00000110: 17f0 73bf 349e ad3c 66da 073f eafc 7b3e
00000120: 234b 7e3f cb1e 60bd 59b9 e1bd 2ee0 f03d
00000130: df0d 2a3d 1094 84bd 3191 f93e e558 a2bb
00000140: 967d 18bf f571 013f 5c75 b43e 1a35 cc3e
00000150: bfff 153e d6ee 63be 09da 723e 89b7 e73e
00000160: 38fd d9be 8637 04be eb17 e8be b1c3 1cbe
00000170: c250 8dbf 71c1 85be b115 053e d46f 1b3f
00000180: cfd5 6dbd b214 19bf 722d 633f 4a7e 78be
00000190: c01b 11bf 20d2 21be 18ec 7d3d d708 39bf
000001a0: b742 443f c15d 01be 7eff 44bf 6b92 34be
000001b0: e524 83be b392 f1bd 70da 22bc 2717 26be
000001c0: ee8b 52be 737e 35be bf60 5e3d fc20 15be
000001d0: 820f 92bf d253 2dbd 6a9a 473d 6cca e33d
000001e0: fba7 9ebe e397 793f c833 55bc cdb2 623c
000001f0: 1268 9dbe 6924 8cbe 29ec 99be 825f 36be
00000200: 552c 7a3e b74e 10be a01d f6bd 9659 a3be
00000210: 33c9 f5bd 1b74 07be be39 973e af8f 64be
00000220: d729 61be 48bd dcbe 59fc 1dbc 3191 8d3e
00000230: 5e73 163e e400 83be 5acf 34bd 1660 62be
00000240: 06f2 a8be 8fc0 db3d 530b 4f3d 6f89 24bd
00000250: 5cca a7be f707 a4be eadc 893d 688e 1a3e
00000260: ad88 bb3d af79 49be aaf0 ca3e 2b27 76bd
00000270: f8d7 98be a23d cdbd 6c25 b73e 873f a9bd
00000280: 146a 8abe 7ba0 70be 3ec8 8ebd 962e 89be
00000290: 108b d6bf ec89 a73c 1f15 a83e 80cf 9f3e
000002a0: f9ba 02be 4e08 823e 077e 1dbf 5ecb 063f
000002b0: f70d 9d3e 9da8 e73e 0526 3b3f ca1d 363d
000002c0: b798 58be f601 853e 9636 3ebe bba9 4ebc
000002d0: 6a29 d33b 6b57 9dbc 27f0 34bf 7ef0 053d
000002e0: 74ae a0bb 05f3 c33c 1912 a3be a0b4 83be
000002f0: 29b4 85be b609 103f 1119 ab3e d00f d43d
00000300: 1fba bbbe 99d2 06bf 203d 433f df57 1d3d
00000310: f306 d2be ae55 3b3f 3d89 9d3e 74f4 c2bd
00000320: cb94 4abf 3b69 c73e 8fdb 413e a839 843e
00000330: f6c4 88be ef7d 723e 4ee5 91be 142b cc3e
00000340: 77da 26be ea92 803e 6a06 e33d 9a95 30bd
00000350: ecb2 3cbe e5e6 483e 9686 41be 0683 8abe
00000360: 67d1 10be 6068 8d3f a023 82be 2d65 febd
00000370: cc8d ecbd 9f46 30bd 751f 533f 75d7 153e
00000380: 16aa ecbe 9183 57be 9d9d b63d 28dc 1cbe
00000390: af20 863f 61dc f1be 40bb 973e 1646 323f
000003a0: c0ca 32bc 523c ddbd 1050 9cbe 9f4e 953e
000003b0: 0194 9ebe 13e4 14bf a78c d33e 3f11 8abc
000003c0: ddc0 01bd a214 123e 1206 ecbe 861e 66be
000003d0: 9209 123e a2e2 d43c a4e8 033e a416 03bf
000003e0: fb22 9739 4dcf b5bd 2248 6fbe 7036 b9be
000003f0: 17e7 f93e c031 343d 5f11 febe 460e f53e

output_gcn.ws f4 [6, 6]
1.5180079 -0.90654147 -0.11816583 -1.2114038 0.056197185 0.8404962 1.4976715 1.1055747
-0.24854167 -0.97595173 0.7703402 -0.40141714 0.25764874 -1.0221924 1.3280295 1.5228066
0.03490296 -0.8746791 -0.0069822576 -0.11435068 0.24773918 1.3748758 -0.939012 -0.3680143
0.1475641 0.97613955 -1.5278578 1.0308106 -1.6017706 -0.6251533 -0.89331055 1.1548476
-0.88479865 0.583282 -0.54926246 0.79162896
00000000: 154e c23f 1a13 68bf ed00 f2bd 480f 9bbf
00000010: 052f 663d c22a 573f b3b3 bf3f 7983 8d3f
00000020: b581 7ebe f9d7 79bf 0435 453f 8c86 cdbe
00000030: 89ea 833e 33d7 82bf dffc a93f 54eb c23f
00000040: 68f6 0e3d f8ea 5fbf 6ccb e4bb b030 eabd
00000050: 57af 7d3e eefb af3f 1763 70bf 5f6c bcbe
00000060: 0b1b 173e 48e4 793f d890 c3bf 9af1 833f
00000070: d206 cdbf 0c0a 20bf 00b0 64bf 0cd2 933f
00000080: 2a82 62bf f851 153f 779c 0cbf 32a8 4a3f

output_gcn.wm f4 [6, 6]
-0.14752518 0.09685989 0.10547532 -0.62788093 -0.082353316 -0.41174698 0.23189835 -0.24803422
-0.15096083 -0.10649632 -0.53745896 -0.66511 -0.23963143 0.19717914 0.0941481 -0.6295727
-0.08560585 -0.53671956 -0.22002271 0.28740248 0.017593075 -0.462403 -0.10335981 -0.24129793
0.06509531 -0.20441297 -0.42000562 -0.080467515 -0.10859667 -0.14952569 -0.18514884 0.13306475
0.11751545 -0.10246678 -0.052452426 0.08127243
00000000: d710 17be 7a5e c63d 7203 d83d cebc 20bf
00000010: dba8 a8bd 80d0 d2be c376 6d3e affc 7dbe
00000020: 7a95 1abe be1a dabd e996 09bf a644 2abf
00000030: f161 75be 54e9 493e b8d0 c03d ad2b 21bf
00000040: 1f52 afbd 7466 09bf a24d 61be 6b26 933e
00000050: 5a1f 903c 16c0 ecbe 4fae d3bd ce16 77be
00000060: b150 853d a251 51be fa0a d7be 27cc a4bd
00000070: ee67 debd 431d 19be a897 3dbe 2042 083e
00000080: f1ab f03d 1ada d1bd 5bd8 56bd 2972 a63d

output_gcn.bh f4 [6]
-0.3902838 -0.027144333 -0.4612306 -0.04556663 -0.09638086 -0.42539582
00000000: 47d3 c7be cb5d debc 6b26 ecbe 13a4 3abd
00000010: 5463 c5bd 7bcd d9be

output_gcn.bs f4 [6]
0.29761514 -0.11115948 -0.16673657 -0.050817687 0.09460352 0.08282715
00000000: 0361 983e 95a7 e3bd febc 2abe 3526 50bd
00000010: 7ebf c13d 48a1 a93d

output_gcn.bm f4 [6]
-0.031426344 0.022235919 0.20829333 0.04601837 -0.3358271 0.047349054
00000000: e9b8 00bd 1a28 b63c d94a 553e c27d 3c3d
00000010: 88f1 abbe 15f1 413d

exp_avg f4 [6, 128]
-0.00046987922 0.001948815 0.00059924903 -0.00010617406 -0.000112793205 0.00035611464 0.0005337822 -0.0015262796
0.0 0.0008303324 0.0 0.0 -0.001252667 -0.0040034764 0.0021980347 -0.001539387
0.0047821784 0.0065190713 0.0013052786 -0.0005710545 0.00011626651 0.0027206023 0.0010389673 -0.00020792935
0.00520356 0.0 0.002938952 -0.0011558391 -0.001414429 0.0 -0.0014178683 -0.0022446236
0.0022344587 0.0 0.0 -0.00024866514 0.00022480616 -0.0009977055 0.0020138938 -0.0011835323
-0.0018394095 -0.00024439784 -0.00069373986 0.0 0.0 -0.00018005168 -0.0007575115 -0.0010852529
-0.0009598884 3.0370109e-05 0.0013195702 -0.0022299741 0.0 -0.0001068213 0.0010717139 -0.0008115586
0.0 -0.001835026 -0.00031143217 0.0 -0.000854243 0.0013556886 -0.0006529568 -2.702327e-05
0.0 0.0 0.0020451692 -0.0011142269 0.0 0.0 -0.00089040457 -0.00092857226
-0.0063085416 0.0 0.0001129342 -0.0018724002 0.0 0.0 -0.00052262 -0.0010687268
-0.001276458 0.0006245718 -8.881004e-05 0.0022366955 -9.172389e-05 -0.00020231822 0.0 -0.0013190643
-0.00018896698 -0.00056749955 0.00097350415 -0.00015083601 0.0 -0.0023301244 0.003113656 0.0
-0.0012223736 -0.00070255005 -0.001083161 0.001868532 0.0 0.0 0.0 0.0
0.0019216537 0.00045567792 -0.001263631 0.0 -2.9995746e-05 -0.0010064467 -0.0004236517 -0.0010244073
-9.06888e-05 -2.3100558e-05 -0.00036687055 0.0 0.0018794825 0.00056082814 -0.00035827377 -0.0005455491
0.0029293804 0.00026426686 0.0032549603 0.0 -6.972294e-05 0.0 0.0012714523 0.0
0.00023306145 0.00018597083 0.00012887007 0.00072878576 0.0011993868 -0.00027518257 0.0005047852 -0.0012850873
0.0 -2.4256442e-05 0.0006890194 0.0 -3.9404236e-05 -0.0027617684 -0.00038764774 -0.0004781236
0.00079428894 0.0016543682 0.00088414 -7.997444e-05 -0.00012235422 0.0014135989 0.00072589295 -6.330988e-05
0.0005053422 0.0 0.0017249626 -0.0005651779 -0.0006311174 0.00029817986 -0.0022036845 -0.00022845947
-0.0003146761 9.74758e-05 0.0 1.0790096e-05 -0.0017899976 -0.00037593336 0.0 0.00082467136
0.00010480197 0.00096601376 -0.00028629502 0.0 0.0 -8.7692824e-05 0.0 0.0027781802
0.0 -6.596666e-05 -0.0005057243 -0.0017950591 0.0054105665 0.00041926606 0.00038845008 0.00014227163
-0.0011344281 -0.0024859488 9.8776145e-05 0.0 -0.0008786382 0.000490534 -0.0003416218 -0.00016392418
0.0 0.0 -0.00041342562 -0.00061724824 0.0 0.0006114513 -0.0016463203 -0.000114157476
-0.0022618049 0.0 0.00038679322 -0.0028960826 0.002616953 0.0002514616 7.4104195e-05 0.00037860885
-0.001269985 0.0012189606 0.00033160686 0.0002156138 -0.00084238464 4.158136e-05 -4.1381394e-05 -0.0017962812
0.00015323874 -8.756842e-05 0.0016222565 -7.3506635e-05 0.0 -0.0014276323 0.0010476559 -0.00044191047
0.0 0.0010124615 0.00012450968 0.00068366504 -0.0016614187 0.00055290567 -0.0005022675 0.00015612996
0.00017917235 0.0010134936 -0.001258038 -0.000960828 0.00022186468 -0.0007635844 0.00016681854 -0.0009334708
-0.00019514728 1.4166799e-05 0.00016631481 0.0021585627 0.0015252609 -7.378495e-05 -0.0005380764 0.0014769656
-4.93885e-05 -3.236156e-05 0.0009216962 0.0 -0.0001881193 0.0018980278 0.0021249796 0.0
00000000: 1f5a f6b9 616f ff3a ec16 1d3a c4a9 deb8
00000010: 648b ecb8 e6b4 ba39 84ed 0b3a 720d c8ba
00000020: 0000 0000 aaaa 593a 0000 0000 0000 0000
00000030: 8830 a4ba 982f 83bb e70c 103b 42c5 c9ba
00000040: d2b3 9c3b ef9d d53b e215 ab3a d2b2 15ba
00000050: 1bd4 f338 224c 323b f52d 883a 9c07 5ab9
00000060: a082 aa3b 0000 0000 6f9b 403b 867f 97ba
00000070: 5d64 b9ba 0000 0000 c4d7 b9ba 891a 13bb
00000080: ff6f 123b 0000 0000 0000 0000 455f 82b9
00000090: f2b9 6b39 71c5 82ba 88fb 033b c120 9bba
000000a0: 5718 f1ba 8622 80b9 18dc 35ba 0000 0000
000000b0: 0000 0000 41cc 3cb9 bc93 46ba 0b3f 8eba
000000c0: 05a1 7bba 50c3 fe37 6ef5 ac3a c224 12bb
000000d0: 0000 0000 4005 e0b8 c078 8c3a c7be 54ba
000000e0: 0000 0000 4185 f0ba b847 a3b9 0000 0000
000000f0: 47ef 5fba 5cb1 b13a 302b 2bba 08b0 e2b7
00000100: 0000 0000 0000 0000 3f08 063b 400b 92ba
00000110: 0000 0000 0000 0000 0a6a 69ba 6e6b 73ba
00000120: e2b7 cebb 0000 0000 16d7 ec38 536b f5ba
00000130: 0000 0000 0000 0000 6f00 09ba 8514 8cba
00000140: d34e a7ba 4eba 233a 873f bab8 8695 123b
00000150: e35b c0b8 6225 54b9 0000 0000 74e4 acba
00000160: 7025 46b9 40c4 14ba c232 7f3a bc29 1eb9
00000170: 0000 0000 00b5 18bb 7b0e 4c3b 0000 0000
00000180: 0d38 a0ba 562b 38ba daf8 8dba 88e9 f43a
00000190: 0000 0000 0000 0000 0000 0000 0000 0000
000001a0: 00e0 fb3a 0ee8 ee39 6ca0 a5ba 0000 0000
000001b0: 609f fbb7 bfea 83ba 921d deb9 6845 86ba
000001c0: 2e30 beb8 12c8 c1b7 8858 c0b9 0000 0000
000001d0: f858 f63a 8a04 133a b1d6 bbb9 2e03 0fba
000001e0: d9fa 3f3b 4c8d 8a39 2c51 553b 0000 0000
000001f0: 3838 92b8 0000 0000 dca6 a63a 0000 0000
00000200: f561 7439 2a01 4339 4c21 0739 fc0b 3f3a
00000210: be34 9d3a 6146 90b9 9053 043a 6070 a8ba
00000220: 0000 0000 507a cbb7 4f9f 343a 0000 0000
00000230: fa45 25b8 c9fe 34bb 333d cbb9 aaac fab9
00000240: d437 503a 63d7 d83a a2c5 673a f3b7 a7b8
00000250: 364c 00b9 8248 b93a da49 3e3a 3cc5 84b8
00000260: f178 043a 0000 0000 2418 e23a 7228 14ba
00000270: 9271 25ba 0655 9c39 b16b 10bb 9f8e 6fb9
00000280: 1cfb a4b9 ec6b cc38 0000 0000 1c07 3537
00000290: 5a9e eaba ec18 c5b9 0000 0000 c22e 583a
000002a0: 21c9 db38 163c 7d3a de19 96b9 0000 0000
000002b0: 0000 0000 bae7 b7b8 0000 0000 2112 363b
000002c0: 0000 0000 9557 8ab8 9592 04ba 3048 ebba
000002d0: 1f4b b13b f0d0 db39 e3a8 cb39 c02e 1539
000002e0: 17b1 94ba 4deb 22bb 0a26 cf38 0000 0000
000002f0: 6954 66ba 2e97 003a b41b b3b9 10e3 2bb9
00000300: 0000 0000 0000 0000 0cc1 d8b9 d4ce 21ba
00000310: 0000 0000 cd49 203a 58c9 d7ba d467 efb8
00000320: ca3a 14bb 0000 0000 82ca ca39 34cc 3dbb
00000330: 3081 2b3b 9bd6 8339 6368 9b38 0580 c639
00000340: a075 a6ba 88c5 9f3a 85db ad39 6416 6239
00000350: 7ad3 5cba a567 2e38 ef90 2db8 3271 ebba
00000360: b6ae 2039 f0a4 b7b8 e5a1 d43a 9327 9ab8
00000370: 0000 0000 641f bbba 8051 893a 38b0 e7b9
00000380: 0000 0000 92b4 843a d08e 0239 fc37 333a
00000390: f6c3 d9ba dff0 103a 9aaa 03ba d1b6 2339
000003a0: 36e0 3b39 34d7 843a c0e4 a4ba 13e0 7bba
000003b0: 59a4 6839 482b 48ba 03ec 2e39 2ab4 74ba
000003c0: 73a0 4cb9 f0ad 6d37 cb64 2e39 ac76 0d3b
000003d0: 43eb c73a febc 9ab8 b20d 0dba be96 c13a
000003e0: 8026 4fb8 f6bb 07b8 fc9d 713a 0000 0000
000003f0: e441 45b9 3fc7 f83a 3e43 0b3b 0000 0000

exp_avg_sq f4 [6, 128]
8.4055836e-07 7.689909e-06 1.5679967e-06 2.0775099e-06 1.3697073e-07 5.8802584e-07 4.458968e-07 1.153715e-06
6e-45 6.9116874e-07 3.349328e-07 5.098047e-07 7.8531275e-07 3.788974e-06 2.3236632e-06 5.417481e-07
4.157371e-06 6.826017e-06 1.2166021e-06 2.4917836e-07 5.897662e-07 1.4492629e-06 4.5247856e-07 6.9794316e-07
3.8349995e-06 0.0 1.6474097e-06 1.0347973e-06 6.0647494e-07 2.1071014e-09 1.3047403e-06 2.3083287e-06
8.163833e-07 8.524654e-07 0.0 1.5771963e-07 6.690434e-07 3.3262772e-06 1.9843174e-06 8.825867e-07
1.6755299e-06 1.6515254e-07 1.5006215e-06 8.4577215e-07 3.5173646e-06 8.587162e-07 7.242867e-07 1.0833207e-06
3.3361786e-07 1.3641452e-06 5.058691e-07 1.5467845e-06 2.5574463e-09 1.3348874e-07 1.4527196e-06 1.6444701e-06
2.963429e-07 9.371574e-07 6.351091e-07 4.5964399e-07 1.0229726e-06 1.5278382e-06 2.7759243e-06 2.7451273e-07
6e-45 6e-45 3.91133e-06 6.283873e-07 6e-45 7.242577e-10 7.455546e-07 1.1217115e-06
8.568744e-06 0.0 4.025934e-07 1.2064834e-06 2.9847433e-09 1.4910779e-07 1.6085789e-06 4.949312e-07
1.595657e-06 6.437643e-07 1.2749522e-06 1.7022378e-06 2.0597101e-06 6.836356e-08 7.160692e-08 4.688371e-07
2.0108416e-07 1.193099e-06 7.83341e-07 7.349214e-07 6e-45 1.8935268e-06 2.5765066e-06 1.4572554e-07
7.9343204e-07 4.0575893e-07 5.591248e-07 1.0478359e-06 8.005801e-07 2.1094972e-07 5.1078605e-06 5.8528116e-07
2.5739798e-06 1.3797262e-07 6.382956e-07 3.7692035e-07 3.6292354e-07 1.2025793e-06 3.7314655e-07 2.8148315e-06
1.9485113e-07 6.0861794e-08 1.0451155e-06 4.383036e-07 4.3692592e-07 5.3555705e-06 2.8379338e-06 5.273724e-07
2.5326483e-06 1.10301514e-07 2.3727987e-06 0.0 3.7122837e-07 1.2721018e-09 4.426208e-07 3.7356727e-09
3.508123e-07 3.383468e-07 4.5814355e-07 6.9317576e-07 4.572092e-07 1.2451871e-06 8.2801506e-07 3.7451963e-07
6e-45 6.7749625e-07 3.2490945e-07 1.5268517e-07 2.3893918e-07 2.3399277e-06 5.14594e-07 3.124198e-07
5.10126e-07 6.1702156e-07 5.299365e-07 2.0175248e-06 1.1289719e-06 3.083597e-06 1.2355214e-06 1.5500564e-08
1.991114e-06 0.0 2.2106778e-06 9.2687054e-07 6.448137e-07 6.9170983e-06 7.495587e-07 6.846635e-07
4.7158233e-07 7.9046504e-07 6e-45 8.7848747e-07 2.7599015e-06 5.5146467e-07 5.171597e-07 1.4245833e-06
5.533343e-07 4.8476716e-07 4.634972e-07 1.6918257e-07 1.5522894e-06 5.6182774e-08 2.0248245e-07 3.0887131e-06
3.4956304e-07 2.2388011e-07 7.627543e-07 8.719516e-07 8.929682e-06 1.3841728e-06 2.730803e-06 4.7106974e-07
1.7265115e-06 9.1970156e-07 1.3677143e-06 1.0560277e-07 5.5473373e-07 8.8579077e-07 1.142491e-06 5.265448e-07
6e-45 6e-45 2.7139808e-07 4.7743333e-07 6e-45 1.4200164e-07 1.3841437e-06 1.1165922e-06
1.3400187e-06 6e-45 9.21013e-07 1.7749785e-06 5.6088084e-06 1.6941232e-07 1.7976721e-06 1.0414503e-07
4.781447e-07 4.690095e-07 8.188342e-07 1.1819635e-06 2.8920996e-07 5.9049103e-08 4.3234017e-08 9.84255e-07
4.9437455e-07 9.542605e-07 8.759588e-07 1.0550901e-06 6e-45 3.1504587e-07 1.9379024e-06 1.552543e-07
9.519321e-10 4.7800233e-07 1.9829945e-07 7.842133e-07 6.6072556e-07 3.199192e-07 4.849659e-07 1.1105415e-06
3.9204593e-07 6.3144864e-07 8.750401e-07 3.1768448e-07 1.1330667e-07 4.7342118e-07 4.4595566e-07 7.1995566e-07
9.0659285e-08 1.2690599e-06 1.1169802e-06 2.0422874e-06 5.992998e-07 8.394293e-09 3.8758697e-07 7.8329896e-07
5.92877e-07 6.431347e-07 3.5275357e-07 0.0 1.4562877e-07 8.440331e-07 1.2090123e-06 2.2415712e-08
00000000: bba2 6135 e803 0137 f573 d235 596b 0b36
00000010: 3a12 1334 d4d8 1d35 9763 ef34 58d9 9a35
00000020: 0400 0000 c188 3935 d0d0 b334 83d9 0835
00000030: 48ce 5235 1446 7e36 3bf0 1b36 a56c 1135
00000040: 8c7f 8b36 0a0b e536 214a a335 d0c6 8534
00000050: 6d50 1e35 4b84 c235 2eec f234 4a5a 3b35
00000060: 65ae 8036 0000 0000 911c dd35 5de3 8a35
00000070: a4cc 2235 85cc 1031 891e af35 c9e8 1a36
00000080: 6f25 5b35 fad4 6435 0000 0000 a459 2934
00000090: 5098 3335 0239 5f36 502a 0536 e5ea 6c35
000000a0: c5e2 e035 c954 3134 f668 c935 0509 6335
000000b0: dd0b 6c36 8782 6635 9a6c 4235 9e66 9135
000000c0: 171c b334 ac17 b735 0fcb 0735 1c9b cf35
000000d0: 12bf 2f31 1b55 0f34 11fb c235 90b7 dc35
000000e0: 0f19 9f34 f790 7b35 5d7c 2a35 fdc4 f634
000000f0: 124d 8935 1f10 cd35 044a 3a36 be60 9334
00000100: 0400 0000 0400 0000 123e 8336 72ae 2835
00000110: 0400 0000 1b15 4730 1f22 4835 b78d 9635
00000120: 7ac2 0f37 0000 0000 0424 d834 74ee a135
00000130: 291c 4d31 701a 2034 5ae6 d735 6adb 0435
00000140: 5b2a d635 25cf 2c35 061f ab35 7278 e435
00000150: 8d39 0a36 44cf 9233 52c6 9933 7bb4 fb34
00000160: 98e9 5734 9222 a035 c946 5235 6a47 4535
00000170: 0400 0000 1625 fe35 0ce8 2c36 bb78 1c34
00000180: 3cfc 5435 15d7 d934 c416 1635 5ea3 8c35
00000190: 72e7 5635 6b81 6234 3064 ab36 371c 1d35
000001a0: a3bc 2c36 a025 1434 5757 2b35 8a5b ca34
000001b0: d5d7 c234 4f68 a135 df54 c834 70e6 3c36
000001c0: 4538 5134 20b3 8233 e545 8c35 fd4f eb34
000001d0: a492 ea34 00b4 b336 5573 3e36 c190 0d35
000001e0: 91f6 2936 e6de ec33 5f3c 1f36 0000 0000
000001f0: 3d4d c734 1ad6 ae30 57a1 ed34 535b 8031
00000200: 4657 bc34 08a6 b534 c5f6 f534 ad12 3a35
00000210: 5b76 f534 4e20 a735 c344 5e35 9611 c934
00000220: 0400 0000 30dd 3535 376f ae34 c8f1 2334
00000230: 8d47 8034 a707 1d36 a122 0a35 a6ba a734
00000240: 97ef 0835 66a1 2535 f540 0e35 d064 0736
00000250: 2e87 9735 cbef 4e36 31d4 a535 1a26 8532
00000260: 149f 0536 0000 0000 285b 1436 0fce 7835
00000270: 4317 2d35 6c19 e836 4835 4935 b8c9 3735
00000280: c82d fd34 5830 5435 0400 0000 33d1 6b35
00000290: bf36 3936 5d08 1435 f2d2 0a35 4f34 bf35
000002a0: d888 1435 f220 0235 92d6 f834 8da8 3534
000002b0: 4258 d035 9d4d 7133 f469 5934 b047 4f36
000002c0: 94ab bb34 b263 7034 14c0 4c35 0f10 6a35
000002d0: b1d0 1537 d1c7 b935 d742 3736 55e7 fc34
000002e0: 7cba e735 69e1 7635 4e92 b735 bdc7 e233
000002f0: 03e9 1435 14c7 6d35 b157 9935 e257 0d35
00000300: 0400 0000 0400 0000 abb4 9134 f828 0035
00000310: 0400 0000 1d79 1834 d1c6 b935 d1dd 9535
00000320: b1da b335 0400 0000 883b 7735 cc3b ee35
00000330: 4c33 bc36 b4e7 3534 8b47 f135 56a6 df33
00000340: db59 0035 2dcc fb34 dccd 5b35 f5a3 9e35
00000350: b744 9b34 2d9d 7d33 4eb0 3933 bf1a 8435
00000360: 29b5 0435 2414 8035 6e23 6b35 9f9c 8d35
00000370: 0400 0000 9323 a934 e90c 0236 fab3 2634
00000380: 22d5 8230 1250 0035 23ec 5434 ba82 5235
00000390: b75c 3135 5cc1 ab34 9a2e 0235 ea0d 9535
000003a0: 627a d234 d280 2935 4ce4 6a35 398e aa34
000003b0: 0053 f333 832a fe34 ae6b ef34 fa42 4135
000003c0: 78b0 c233 9154 aa35 26eb 9535 3b0e 0936
000003d0: 92df 2035 7e36 1032 8c15 d034 e543 5235
000003e0: 3226 1f35 e1a3 2c35 1562 bd34 0000 0000
000003f0: 225e 1c34 8391 6235 5945 a235 ac8c c032

exp_avg f4 [128]
-0.0023920303 0.0017776408 -0.0007854087 -0.00026023286 0.00027002068 6.815775e-05 -0.0013888809 -0.0027813364
0.0 0.00017881783 0.00022256123 -0.00024303145 -0.0010377705 -0.003311431 0.00095666014 -0.0024026937
0.0033736308 0.0044592693 0.0011504756 -0.002047228 -5.734389e-05 0.0010633906 0.00027113943 -0.0012823452
0.003042604 0.0 0.0017859349 -0.0021947161 -0.0024088866 -6.3971383e-06 -0.0019202244 -0.0011904895
0.0011689314 -0.00037223916 0.0 3.1290263e-05 -0.0012280049 -0.00050969614 0.0019438688 -0.0006890978
-0.0017926701 0.0016884686 -0.0008936877 0.0 0.0 -0.0013300115 -0.0003242793 0.001555968
-0.0011587213 -0.0015393959 -0.0010728717 -0.003141949 0.006710843 -4.72143e-05 -0.00015229522 -0.0013186537
-0.00059331616 -0.002334358 -0.0010862449 -0.0015377067 -0.0024594422 0.0022765542 -0.0002893217 -0.0010853425
0.0 0.0 0.0011706451 -0.0016680479 0.0 0.0013248111 -6.307033e-05 -0.0021325292
-0.004964625 0.0 0.0024106065 -0.002523506 0.0030147326 -0.00030721532 -0.0011317593 -0.0010186041
-0.0010550021 -0.0013427951 0.0004719146 0.0012264978 -0.00039618037 -0.00031162886 -0.00043145323 -0.0019195377
0.0019331003 -3.72628e-05 0.0025762175 -0.00068729324 0.0 -0.0014868758 0.0013880986 -0.00045676812
0.0011958723 -2.2302673e-05 -0.002907315 0.0008429446 -0.0014349408 -4.7181675e-05 -0.0013200445 0.00036512938
0.0014709474 0.00077922817 -0.00046189874 -0.0015613455 0.000882437 -0.0016397021 -0.0009804412 -0.0008525911
-0.00079490157 0.0012307705 -0.00013076942 0.002202811 0.001591455 0.0027312976 -0.0014558986 -0.00043060348
0.003223632 0.00017277198 0.002961511 0.0 -0.00043942 0.0020746146 0.0028049648 0.0
00000000: 9cc3 1cbb baff e83a e3e3 4dba dd6f 88b9
00000010: 9091 8d39 eaef 8e38 1c0b b6ba 1547 36bb
00000020: 0000 0000 0c81 3b39 535f 6939 42d6 7eb9
00000030: cd05 88ba 9804 59bb 60c8 7a3a 8376 1dbb
00000040: 2218 5d3b 101f 923b 8ecb 963a c92a 06bb
00000050: 8884 70b8 7861 8b3a b827 8e39 5d14 a8ba
00000060: 6d66 473b 0000 0000 0816 ea3a 3ad5 0fbb
00000070: 69de 1dbb 00a7 d6b6 0ab0 fbba 330a 9cba
00000080: d436 993a 1829 c3b9 0000 0000 aa3d 0338
00000090: 02f5 a0ba 219d 05ba 6ac9 fe3a 92a4 34ba
000000a0: 07f8 eaba 9b4f dd3a 5e46 6aba 0000 0000
000000b0: 0000 0000 c853 aeba 0804 aab9 9ff1 cb3a
000000c0: 3ce0 97ba 8ec5 c9ba 9a9f 8cba 28e9 4dbb
000000d0: a2e6 db3b f807 46b8 70b1 1fb9 add6 acba
000000e0: c688 1bba 07fc 18bb 5560 8eba e08c c9ba
000000f0: 982e 21bb 3e32 153b 1ab0 97b9 0d42 8eba
00000100: 0000 0000 0000 0000 5570 993a 66a2 daba
00000110: 0000 0000 49a5 ad3a a044 84b8 e7c1 0bbb
00000120: 4bae a2bb 0000 0000 44fb 1d3b 6861 25bb
00000130: d292 453b be11 a1b9 8a57 94ba af82 85ba
00000140: ff47 8aba ba00 b0ba 4e6b f739 70c2 a03a
00000150: 6eb6 cfb9 1e62 a3b9 ac34 e2b9 ff98 fbba
00000160: 1560 fd3a a04a 1cb8 c2d5 283b 782b 34ba
00000170: 0000 0000 46e3 c2ba dcf0 b53a 617a efb9
00000180: d1be 9c3a a016 bbb7 a788 3ebb 0ef9 5c3a
00000190: a014 bcba f0e4 45b8 5805 adba d66e bf39
000001a0: cecc c03a 1e45 4c3a 002b f2b9 10a6 ccba
000001b0: 5853 673a 46eb d6ba 2682 80ba 6c80 5fba
000001c0: f160 50ba ce51 a13a 261f 09b9 095d 103b
000001d0: 5e98 d03a 92ff 323b dad3 beba 9fc2 e1b9
000001e0: 9243 533b 202a 3539 e915 423b 0000 0000
000001f0: f461 e6b9 42f6 073b 80d3 373b 0000 0000

exp_avg_sq f4 [128]
1.4060452e-06 3.1493453e-06 1.6414555e-06 1.589639e-06 1.0178597e-06 6.167424e-07 1.1931293e-06 2.1589365e-06
6e-45 2.8800682e-06 5.1121174e-07 6.080235e-07 7.816674e-07 2.3549505e-06 1.8002181e-06 1.3389185e-06
2.9644557e-06 3.1865327e-06 1.324805e-06 4.796383e-06 6.2828695e-07 5.361163e-06 2.6798689e-06 1.3441874e-06
3.684471e-06 0.0 3.8135522e-06 2.2123093e-06 1.5468713e-06 6.3777857e-06 1.9373306e-06 3.4971881e-06
1.7596734e-06 1.0810744e-06 6e-45 1.1904197e-06 1.0653248e-06 2.2933434e-06 2.2201205e-06 2.47549e-06
3.0608971e-06 1.8724677e-06 1.0024262e-06 3.4004705e-07 2.0391215e-06 1.4326225e-06 2.5333347e-07 1.2820948e-06
7.407191e-07 4.548502e-06 8.318501e-07 3.4298691e-06 9.308946e-06 1.5677426e-06 4.1516787e-06 1.3718167e-06
6.60088e-07 1.3398511e-06 1.6196228e-06 7.8103756e-07 1.8033314e-06 1.5628917e-06 4.4631465e-06 2.4999697e-06
6e-45 6e-45 2.294734e-06 1.9652196e-06 6e-45 1.5134145e-06 1.2136427e-06 2.921763e-06
4.830832e-06 6e-45 2.530521e-06 1.6520587e-06 7.818826e-06 8.5965746e-07 2.226609e-06 3.85192e-07
1.6041046e-06 5.6702443e-06 3.6020456e-06 1.1664712e-06 9.915653e-07 2.2004374e-06 4.5052258e-07 1.015746e-06
1.595602e-06 1.3366077e-06 2.9982664e-06 4.0879836e-06 6e-45 1.0348416e-06 4.806384e-06 4.806072e-07
3.3193712e-06 1.668116e-06 1.2408884e-06 2.3070008e-06 1.9616048e-06 6.768076e-07 3.1274367e-06 1.2298418e-06
1.0512449e-06 4.0981078e-07 2.0486366e-06 1.3968054e-06 2.3936454e-06 1.758841e-06 3.8431626e-06 1.0118672e-06
5.5189986e-07 1.5821547e-06 5.757852e-06 4.6194336e-06 1.3304603e-06 3.834194e-06 9.236306e-06 1.1078563e-06
4.698135e-06 6.4281454e-07 3.0453652e-06 0.0 4.778833e-07 1.8558362e-06 3.5466192e-06 5.5628294e-07
00000000: 58b7 bc35 5759 5336 fb4f dc35 955b d535
00000010: 659d 8835 378e 2535 9c23 a035 3fe2 1036
00000020: 0400 0000 3247 4136 343a 0935 0f37 2335
00000030: c6d3 5135 be09 1e36 069f f135 e4b4 b335
00000040: f6f0 4636 37d8 5536 f4cf b135 9ef0 a036
00000050: 8da7 2835 0ae4 b336 ccd7 3336 ed69 b435
00000060: bb42 7736 0000 0000 54ec 7f36 2f77 1436
00000070: 189e cf35 c300 d636 1603 0236 3cb1 6a36
00000080: eb2d ec35 6f19 9135 0400 0000 82c6 9f35
00000090: 48fc 8e35 57e7 1936 61fd 1436 9820 2636
000000a0: d069 4d36 8051 fb35 1a8b 8635 b68f b634
000000b0: d7d7 0836 8948 c035 e301 8834 7114 ac35
000000c0: d4d5 4635 569f 9836 4e4c 5f35 b42c 6636
000000d0: 9e2d 1c37 3a6b d235 a64e 8b36 431f b835
000000e0: e730 3135 efd4 b335 d161 d935 7ea8 5135
000000f0: ff09 f235 8dc4 d135 23c2 9536 27c5 2736
00000100: 0400 0000 0400 0000 3bff 1936 37e2 0336
00000110: 0400 0000 8720 cb35 72e4 a235 8213 4436
00000120: 8818 a236 0400 0000 05d2 2936 4ebc dd35
00000130: 9a2d 0337 36c3 6635 da6c 1536 63cc ce34
00000140: 9d4c d735 0743 be36 acba 7136 a58f 9c35
00000150: ed15 8535 3aab 1336 5adf f134 c454 8835
00000160: 7828 d635 7e65 b335 d335 4936 832b 8936
00000170: 0400 0000 e3e4 8a35 8646 a136 1303 0135
00000180: 5dc2 5e36 08e4 df35 9a8c a635 f9d1 1a36
00000190: 1da4 0336 ddad 3535 f4e0 5136 0b11 a535
000001a0: 8018 8d35 f703 dc34 4f7b 0936 de79 bb35
000001b0: 84a2 2036 5111 ec35 84f4 8036 7ecf 8735
000001c0: 4526 1435 6c5a d435 9233 c136 a200 9b36
000001d0: 4592 b235 7aa7 8036 a2f5 1a37 a7b1 9435
000001e0: aca4 9d36 e18d 2c35 fa5e 4c36 0000 0000
000001f0: e447 0035 0c16 f935 7402 6e36 7953 1535

exp_avg f4 [128, 6]
-0.0002132275 -0.00020613085 5.118298e-05 0.00013287929 9.35954e-05 5.99364e-05 -9.8704215e-05 -0.00013810999
0.00011797484 6.1765764e-05 -6.319207e-05 -1.543829e-05 -1.7185163e-06 0.00014711298 5.7439873e-05 6.147075e-05
-1.6527196e-05 2.19099e-05 2.9895547e-05 -0.0004082082 0.00025428913 0.00010192847 -1.2197265e-06 -3.16364e-05
-6.22317e-05 0.000273155 2.5454681e-05 -2.5928573e-05 3.5052344e-05 2.3201337e-05 0.00019553179 -9.819286e-05
-5.0279792e-05 -9.9407625e-06 -0.00038312242 -8.75407e-05 8.371957e-05 0.00034032337 -2.6325039e-05 -6.658505e-05
-0.00013564604 -5.171309e-05 0.00025850657 -0.00017756438 0.00021481089 0.00017296565 -0.00096729904 -0.0004329129
0.0 0.0 0.0 0.0 0.0 0.0 0.0005822307 -7.753811e-05
0.0001770649 0.00016522795 -0.00015576297 -4.805771e-05 0.0001299679 -2.901414e-05 -4.015307e-05 0.00016605231
-0.00013313681 -2.4751027e-05 0.0 0.00022920244 1.5558437e-06 -4.4244744e-06 -3.1622167e-05 6.70886e-05
-0.00029149913 0.00019134794 -1.2097159e-05 -2.0889176e-05 -0.0008667815 -2.5462217e-05 2.1806089e-05 -0.00047023705
0.00022601323 -0.00025115747 -0.0004255028 -0.0001698138 0.0004585011 0.00031515528 0.00013465488 -0.00021418667
-3.087229e-05 -4.875029e-06 6.0983184e-05 -0.00016562024 5.532599e-05 5.31386e-05 -0.0012456225 2.6374804e-05
-4.06428e-05 -0.00016274206 0.00012469008 6.4960666e-05 -3.0687883e-05 -2.497483e-05 -9.03889e-06 -0.00019848428
0.00015404934 5.413782e-05 -7.234271e-05 -4.402589e-05 -4.6867644e-06 -0.00034123243 0.000103794315 -8.995953e-05
-8.014968e-05 1.1197666e-05 -0.00034137865 -0.00027141086 0.00010005487 0.00032045366 -0.0008513902 -0.00024079438
0.00012985674 -9.173963e-06 7.785978e-05 -0.000803271 -3.6302088e-05 -4.9635913e-05 0.00017227556 -0.00024077056
0.00012815416 0.00025100468 -0.00033406192 -3.646886e-05 0.0004472013 -9.568101e-05 0.00018233721 0.00024199458
-0.00020540887 -6.837531e-05 -7.2199604e-05 -0.00019447503 2.6214004e-05 0.00011005453 -0.00017029284 3.6819743e-05
-8.455574e-05 0.00022773155 -9.075471e-05 0.00024810035 -0.000553807 -0.00013042273 0.0 0.0
0.0 0.0 0.0 0.0 0.00035426157 -1.13974675e-05 9.206961e-05 0.000106692656
-0.00040971002 -0.00017998196 0.00027318954 0.000233969 5.892539e-05 -0.00030373936 -0.00018465784 -0.0012055319
7.705292e-05 -0.0002641811 4.039546e-05 4.9515555e-05 -0.00028012216 1.9238538e-05 -0.0003395721 -0.0001525353
0.00047410824 0.00013708857 -2.9805917e-05 0.00021267161 5.710195e-05 -0.00044733036 0.00022147756 0.00033109175
-0.0018943985 -0.0016113748 -0.00016337977 0.00031248972 0.00023914667 8.8659275e-05 -0.00047699685 -0.00037380372
-9.1081265e-06 -4.2056774e-05 1.1558254e-06 8.1347214e-05 -8.9476605e-05 -0.0001846946 -4.1324343e-05 2.9775842e-05
7.962126e-06 0.000120012184 0.00014809892 -0.00010640708 0.0 0.0 0.0 0.0
0.0 0.0 -0.00010664553 -5.160898e-05 -0.00011698392 -0.00013909565 7.5356606e-05 -1.8601659e-05
0.000626797 -0.00026231128 -5.182576e-05 -0.00020683772 -0.00053229555 -0.00013066793 -0.00012062134 0.00053560024
0.0002942648 -3.6460726e-05 -0.0009778021 -0.00041679104 -1.8659299e-06 -0.00037491185 0.00017722527 0.00012198095
-0.00026106904 -2.8209338e-06 -0.00012855927 8.561185e-05 2.7744172e-05 -1.1908259e-05 2.725546e-05 -0.00010547172
-6.8957845e-05 5.4760058e-05 0.00012530657 6.3721876e-05 -0.00049669854 3.883762e-05 0.00015762285 -3.6249723e-05
0.00014251715 2.835656e-05 -8.9064735e-05 -0.00016705444 0.0001114929 0.00020228435 7.49861e-05 -0.00017196455
00000000: d295 5fb9 d424 58b9 4ead 5638 8355 0b39
00000010: a648 c438 3864 7b38 6cff ceb8 9ed1 10b9
00000020: 4369 f738 3e88 8138 fc85 84b8 7a81 81b7
00000030: c5a7 e6b5 5742 1a39 98eb 7038 dce9 8038
00000040: e2a3 8ab7 27cb b737 33c8 fa37 c704 d6b9
00000050: 1c52 8539 6ec2 d538 7cb5 a3b5 53b1 04b8
00000060: 6482 82b8 3e36 8f39 8387 d537 3081 d9b7
00000070: 2b05 1338 7ea0 c237 aa07 4d39 e4ec cdb8
00000080: 84e3 52b8 40c7 26b7 d2dd c8b9 0e96 b7b8
00000090: 9a92 af38 6e6d b239 97d4 dcb7 94a3 8bb8
000000a0: 353c 0eb9 82e6 58b8 2a88 8739 9330 3ab9
000000b0: dc3e 6139 1d5e 3539 5792 7dba 96f8 e2b9
000000c0: 0000 0000 0000 0000 0000 0000 0000 0000
000000d0: 0000 0000 0000 0000 d7a0 183a f59b a2b8
000000e0: 7faa 3939 0a41 2d39 4e54 23b9 9391 49b8
000000f0: fe47 0839 6463 f3b7 086a 28b8 541e 2e39
00000100: a49a 0bb9 6da0 cfb7 0000 0000 1056 7039
00000110: 62d2 d035 f275 94b6 0ba2 04b8 ebb1 8c38
00000120: 5ad4 98b9 92a4 4839 e7f4 4ab7 2a3b afb7
00000130: b938 63ba b297 d5b7 38ec b637 268a f6b9
00000140: f7fd 6c39 c9ad 83b9 0516 dfb9 0b10 32b9
00000150: fa62 f039 6d3b a539 2532 0d39 4c97 60b9
00000160: de7c 01b8 2e94 a3b6 32c8 7f38 58aa 2db9
00000170: d40d 6838 23e1 5e38 2844 a3ba 763f dd37
00000180: e077 2ab8 bda5 2ab9 3dbf 0239 7e3b 8838
00000190: ddb6 00b8 0a81 d1b7 bda5 17b7 3820 50b9
000001a0: 4e88 2139 0b12 6338 b2b6 97b8 70a8 38b8
000001b0: 0043 9db6 71e7 b2b9 26ac d938 a8a8 bcb8
000001c0: 0816 a8b8 9cdd 3b37 11fb b2b9 264c 8eb9
000001d0: 8dd4 d138 9002 a839 d42f 5fba c07d 7cb9
000001e0: 272a 0839 dfe9 19b7 a748 a338 9b92 52ba
000001f0: 1243 18b8 2830 50b8 dea4 3439 5b77 7cb9
00000200: 1f61 0639 4799 8339 0825 afb9 24f6 18b8
00000210: 5876 ea39 5aa8 c8b8 c631 3f39 edbf 7d39
00000220: 0663 57b9 b764 8fb8 de69 97b8 feeb 4bb9
00000230: 25e6 db37 13cd e638 a390 32b9 e66e 1a38
00000240: 8453 b1b8 39cb 6e39 9053 beb8 7713 8239
00000250: 5c2d 11ba 16c2 08b9 0000 0000 0000 0000
00000260: 0000 0000 0000 0000 0000 0000 0000 0000
00000270: 2fbc b939 c037 3fb7 7f15 c138 2fc0 df38
00000280: 59ce d6b9 8ab9 3cb9 e13a 8f39 9355 7539
00000290: a826 7738 353f 9fb9 b6a0 41b9 f002 9eba
000002a0: 7997 a138 c981 8ab9 4b6e 2938 ecae 4f38
000002b0: 5cdd 92b9 7262 a137 9908 b2b9 e2f1 1fb9
000002c0: bb91 f839 6fbf 0f39 b807 fab7 9a00 5f39
000002d0: c080 6f38 aa87 eab9 6e3c 6839 6296 ad39
000002e0: 774d f8ba c434 d3ba ec50 2bb9 a9d5 a339
000002f0: 72c3 7a39 96ee b938 6f15 fab9 16fb c3b9
00000300: 1bcf 18b7 1e66 30b8 dc21 9b35 f498 aa38
00000310: 63a5 bbb8 94aa 41b9 ad53 2db8 22c7 f937
00000320: 1295 0537 0daf fb38 004b 1b39 de26 dfb8
00000330: 0000 0000 0000 0000 0000 0000 0000 0000
00000340: 0000 0000 0000 0000 e2a6 dfb8 b876 58b8
00000350: 4455 f5b8 34da 11b9 c508 9e38 c20a 9cb7
00000360: a24f 243a d386 89b9 7c5f 59b8 94e2 58b9
00000370: c089 0bba e803 09b9 17f6 fcb8 8667 0c3a
00000380: 8e47 9a39 68ed 18b8 9829 80ba bf84 dab9
00000390: dd70 fab5 d18f c4b9 8cd5 3939 06d0 ff38
000003a0: 18e0 88b9 464f 3db6 decd 06b9 838a b338
000003b0: 28bc e837 95c9 47b7 a8a2 e437 b330 ddb8
000003c0: 769d 90b8 2aae 6538 ba64 0339 6ca2 8538
000003d0: e034 02ba 94e5 2238 9047 2539 d80a 18b8
000003e0: a870 1539 40df ed37 44c8 bab8 562b 2fb9
000003f0: 4bd1 e938 4b1c 5439 db41 9d38 6251 34b9
